Load /mnt/sdb/dpai3/project/YOLOP/tools/runs/BddDataset/v4.2_2022-03-27-15-33/model_best.pth done!
Converting to /mnt/sdb/dpai3/project/YOLOP/weights/yolop-640-640-v4.2.onnx
convert /mnt/sdb/dpai3/project/YOLOP/weights/yolop-640-640-v4.2.onnx to onnx finish!!!
graph torch-jit-export (
  %images[FLOAT, 1x3x640x640]
) optional inputs with matching initializers (
  %model.2.cv2.weight[FLOAT, 32x64x1x1]
  %model.2.cv3.weight[FLOAT, 32x32x1x1]
  %model.2.bn.weight[FLOAT, 64]
  %model.2.bn.bias[FLOAT, 64]
  %model.2.bn.running_mean[FLOAT, 64]
  %model.2.bn.running_var[FLOAT, 64]
  %model.4.cv2.weight[FLOAT, 64x128x1x1]
  %model.4.cv3.weight[FLOAT, 64x64x1x1]
  %model.4.bn.weight[FLOAT, 128]
  %model.4.bn.bias[FLOAT, 128]
  %model.4.bn.running_mean[FLOAT, 128]
  %model.4.bn.running_var[FLOAT, 128]
  %model.6.cv2.weight[FLOAT, 128x256x1x1]
  %model.6.cv3.weight[FLOAT, 128x128x1x1]
  %model.6.bn.weight[FLOAT, 256]
  %model.6.bn.bias[FLOAT, 256]
  %model.6.bn.running_mean[FLOAT, 256]
  %model.6.bn.running_var[FLOAT, 256]
  %model.9.cv2.weight[FLOAT, 256x512x1x1]
  %model.9.cv3.weight[FLOAT, 256x256x1x1]
  %model.9.bn.weight[FLOAT, 512]
  %model.9.bn.bias[FLOAT, 512]
  %model.9.bn.running_mean[FLOAT, 512]
  %model.9.bn.running_var[FLOAT, 512]
  %model.11.transformer_encoder.layers.0.self_attn.in_proj_weight[FLOAT, 768x256]
  %model.11.transformer_encoder.layers.0.self_attn.in_proj_bias[FLOAT, 768]
  %model.11.transformer_encoder.layers.0.self_attn.out_proj.weight[FLOAT, 256x256]
  %model.11.transformer_encoder.layers.0.self_attn.out_proj.bias[FLOAT, 256]
  %model.11.transformer_encoder.layers.0.linear1.weight[FLOAT, 512x256]
  %model.11.transformer_encoder.layers.0.linear1.bias[FLOAT, 512]
  %model.11.transformer_encoder.layers.0.linear2.weight[FLOAT, 256x512]
  %model.11.transformer_encoder.layers.0.linear2.bias[FLOAT, 256]
  %model.11.transformer_encoder.layers.0.norm1.weight[FLOAT, 256]
  %model.11.transformer_encoder.layers.0.norm1.bias[FLOAT, 256]
  %model.11.transformer_encoder.layers.0.norm2.weight[FLOAT, 256]
  %model.11.transformer_encoder.layers.0.norm2.bias[FLOAT, 256]
  %model.16.cv2.weight[FLOAT, 128x512x1x1]
  %model.16.cv3.weight[FLOAT, 128x128x1x1]
  %model.16.bn.weight[FLOAT, 256]
  %model.16.bn.bias[FLOAT, 256]
  %model.16.bn.running_mean[FLOAT, 256]
  %model.16.bn.running_var[FLOAT, 256]
  %model.18.transformer_encoder.layers.0.self_attn.in_proj_weight[FLOAT, 384x128]
  %model.18.transformer_encoder.layers.0.self_attn.in_proj_bias[FLOAT, 384]
  %model.18.transformer_encoder.layers.0.self_attn.out_proj.weight[FLOAT, 128x128]
  %model.18.transformer_encoder.layers.0.self_attn.out_proj.bias[FLOAT, 128]
  %model.18.transformer_encoder.layers.0.linear1.weight[FLOAT, 512x128]
  %model.18.transformer_encoder.layers.0.linear1.bias[FLOAT, 512]
  %model.18.transformer_encoder.layers.0.linear2.weight[FLOAT, 128x512]
  %model.18.transformer_encoder.layers.0.linear2.bias[FLOAT, 128]
  %model.18.transformer_encoder.layers.0.norm1.weight[FLOAT, 128]
  %model.18.transformer_encoder.layers.0.norm1.bias[FLOAT, 128]
  %model.18.transformer_encoder.layers.0.norm2.weight[FLOAT, 128]
  %model.18.transformer_encoder.layers.0.norm2.bias[FLOAT, 128]
  %model.23.transformer_encoder.layers.0.self_attn.in_proj_weight[FLOAT, 768x256]
  %model.23.transformer_encoder.layers.0.self_attn.in_proj_bias[FLOAT, 768]
  %model.23.transformer_encoder.layers.0.self_attn.out_proj.weight[FLOAT, 256x256]
  %model.23.transformer_encoder.layers.0.self_attn.out_proj.bias[FLOAT, 256]
  %model.23.transformer_encoder.layers.0.linear1.weight[FLOAT, 512x256]
  %model.23.transformer_encoder.layers.0.linear1.bias[FLOAT, 512]
  %model.23.transformer_encoder.layers.0.linear2.weight[FLOAT, 256x512]
  %model.23.transformer_encoder.layers.0.linear2.bias[FLOAT, 256]
  %model.23.transformer_encoder.layers.0.norm1.weight[FLOAT, 256]
  %model.23.transformer_encoder.layers.0.norm1.bias[FLOAT, 256]
  %model.23.transformer_encoder.layers.0.norm2.weight[FLOAT, 256]
  %model.23.transformer_encoder.layers.0.norm2.bias[FLOAT, 256]
  %model.26.cv2.weight[FLOAT, 64x256x1x1]
  %model.26.cv3.weight[FLOAT, 64x64x1x1]
  %model.26.bn.weight[FLOAT, 128]
  %model.26.bn.bias[FLOAT, 128]
  %model.26.bn.running_mean[FLOAT, 128]
  %model.26.bn.running_var[FLOAT, 128]
  %model.29.cv2.weight[FLOAT, 128x256x1x1]
  %model.29.cv3.weight[FLOAT, 128x128x1x1]
  %model.29.bn.weight[FLOAT, 256]
  %model.29.bn.bias[FLOAT, 256]
  %model.29.bn.running_mean[FLOAT, 256]
  %model.29.bn.running_var[FLOAT, 256]
  %model.32.cv2.weight[FLOAT, 256x512x1x1]
  %model.32.cv3.weight[FLOAT, 256x256x1x1]
  %model.32.bn.weight[FLOAT, 512]
  %model.32.bn.bias[FLOAT, 512]
  %model.32.bn.running_mean[FLOAT, 512]
  %model.32.bn.running_var[FLOAT, 512]
  %model.33.anchor_grid[FLOAT, 3x1x3x1x1x2]
  %model.33.m.0.weight[FLOAT, 45x128x1x1]
  %model.33.m.0.bias[FLOAT, 45]
  %model.33.m.1.weight[FLOAT, 45x256x1x1]
  %model.33.m.1.bias[FLOAT, 45]
  %model.33.m.2.weight[FLOAT, 45x512x1x1]
  %model.33.m.2.bias[FLOAT, 45]
  %model.36.cv2.weight[FLOAT, 32x128x1x1]
  %model.36.cv3.weight[FLOAT, 32x32x1x1]
  %model.36.bn.weight[FLOAT, 64]
  %model.36.bn.bias[FLOAT, 64]
  %model.36.bn.running_mean[FLOAT, 64]
  %model.36.bn.running_var[FLOAT, 64]
  %model.40.cv2.weight[FLOAT, 4x16x1x1]
  %model.40.cv3.weight[FLOAT, 4x4x1x1]
  %model.40.bn.weight[FLOAT, 8]
  %model.40.bn.bias[FLOAT, 8]
  %model.40.bn.running_mean[FLOAT, 8]
  %model.40.bn.running_var[FLOAT, 8]
  %model.45.cv2.weight[FLOAT, 32x128x1x1]
  %model.45.cv3.weight[FLOAT, 32x32x1x1]
  %model.45.bn.weight[FLOAT, 64]
  %model.45.bn.bias[FLOAT, 64]
  %model.45.bn.running_mean[FLOAT, 64]
  %model.45.bn.running_var[FLOAT, 64]
  %model.49.cv2.weight[FLOAT, 4x16x1x1]
  %model.49.cv3.weight[FLOAT, 4x4x1x1]
  %model.49.bn.weight[FLOAT, 8]
  %model.49.bn.bias[FLOAT, 8]
  %model.49.bn.running_mean[FLOAT, 8]
  %model.49.bn.running_var[FLOAT, 8]
  %3124[FLOAT, 32x12x3x3]
  %3125[FLOAT, 32]
  %3127[FLOAT, 64x32x3x3]
  %3128[FLOAT, 64]
  %3130[FLOAT, 32x64x1x1]
  %3131[FLOAT, 32]
  %3133[FLOAT, 32x32x1x1]
  %3134[FLOAT, 32]
  %3136[FLOAT, 32x32x3x3]
  %3137[FLOAT, 32]
  %3139[FLOAT, 64x64x1x1]
  %3140[FLOAT, 64]
  %3142[FLOAT, 128x64x3x3]
  %3143[FLOAT, 128]
  %3145[FLOAT, 64x128x1x1]
  %3146[FLOAT, 64]
  %3148[FLOAT, 64x64x1x1]
  %3149[FLOAT, 64]
  %3151[FLOAT, 64x64x3x3]
  %3152[FLOAT, 64]
  %3154[FLOAT, 64x64x1x1]
  %3155[FLOAT, 64]
  %3157[FLOAT, 64x64x3x3]
  %3158[FLOAT, 64]
  %3160[FLOAT, 64x64x1x1]
  %3161[FLOAT, 64]
  %3163[FLOAT, 64x64x3x3]
  %3164[FLOAT, 64]
  %3166[FLOAT, 128x128x1x1]
  %3167[FLOAT, 128]
  %3169[FLOAT, 256x128x3x3]
  %3170[FLOAT, 256]
  %3172[FLOAT, 128x256x1x1]
  %3173[FLOAT, 128]
  %3175[FLOAT, 128x128x1x1]
  %3176[FLOAT, 128]
  %3178[FLOAT, 128x128x3x3]
  %3179[FLOAT, 128]
  %3181[FLOAT, 128x128x1x1]
  %3182[FLOAT, 128]
  %3184[FLOAT, 128x128x3x3]
  %3185[FLOAT, 128]
  %3187[FLOAT, 128x128x1x1]
  %3188[FLOAT, 128]
  %3190[FLOAT, 128x128x3x3]
  %3191[FLOAT, 128]
  %3193[FLOAT, 256x256x1x1]
  %3194[FLOAT, 256]
  %3196[FLOAT, 512x256x3x3]
  %3197[FLOAT, 512]
  %3199[FLOAT, 256x512x1x1]
  %3200[FLOAT, 256]
  %3202[FLOAT, 512x1024x1x1]
  %3203[FLOAT, 512]
  %3205[FLOAT, 256x512x1x1]
  %3206[FLOAT, 256]
  %3208[FLOAT, 256x256x1x1]
  %3209[FLOAT, 256]
  %3211[FLOAT, 256x256x3x3]
  %3212[FLOAT, 256]
  %3214[FLOAT, 512x512x1x1]
  %3215[FLOAT, 512]
  %3217[FLOAT, 256x512x1x1]
  %3218[FLOAT, 256]
  %3220[FLOAT, 256x512x1x1]
  %3221[FLOAT, 256]
  %3223[FLOAT, 128x512x1x1]
  %3224[FLOAT, 128]
  %3226[FLOAT, 128x128x1x1]
  %3227[FLOAT, 128]
  %3229[FLOAT, 128x128x3x3]
  %3230[FLOAT, 128]
  %3232[FLOAT, 256x256x1x1]
  %3233[FLOAT, 256]
  %3235[FLOAT, 128x256x1x1]
  %3236[FLOAT, 128]
  %3238[FLOAT, 128x256x1x1]
  %3239[FLOAT, 128]
  %3241[FLOAT, 256x512x1x1]
  %3242[FLOAT, 256]
  %3244[FLOAT, 64x256x1x1]
  %3245[FLOAT, 64]
  %3247[FLOAT, 64x64x1x1]
  %3248[FLOAT, 64]
  %3250[FLOAT, 64x64x3x3]
  %3251[FLOAT, 64]
  %3253[FLOAT, 128x128x1x1]
  %3254[FLOAT, 128]
  %3256[FLOAT, 128x128x3x3]
  %3257[FLOAT, 128]
  %3259[FLOAT, 128x256x1x1]
  %3260[FLOAT, 128]
  %3262[FLOAT, 128x128x1x1]
  %3263[FLOAT, 128]
  %3265[FLOAT, 128x128x3x3]
  %3266[FLOAT, 128]
  %3268[FLOAT, 256x256x1x1]
  %3269[FLOAT, 256]
  %3271[FLOAT, 256x256x3x3]
  %3272[FLOAT, 256]
  %3274[FLOAT, 256x512x1x1]
  %3275[FLOAT, 256]
  %3277[FLOAT, 256x256x1x1]
  %3278[FLOAT, 256]
  %3280[FLOAT, 256x256x3x3]
  %3281[FLOAT, 256]
  %3283[FLOAT, 512x512x1x1]
  %3284[FLOAT, 512]
  %3286[FLOAT, 128x256x3x3]
  %3287[FLOAT, 128]
  %3289[FLOAT, 32x128x1x1]
  %3290[FLOAT, 32]
  %3292[FLOAT, 32x32x1x1]
  %3293[FLOAT, 32]
  %3295[FLOAT, 32x32x3x3]
  %3296[FLOAT, 32]
  %3298[FLOAT, 64x64x1x1]
  %3299[FLOAT, 64]
  %3301[FLOAT, 32x64x3x3]
  %3302[FLOAT, 32]
  %3304[FLOAT, 16x32x3x3]
  %3305[FLOAT, 16]
  %3307[FLOAT, 4x16x1x1]
  %3308[FLOAT, 4]
  %3310[FLOAT, 4x4x1x1]
  %3311[FLOAT, 4]
  %3313[FLOAT, 4x4x3x3]
  %3314[FLOAT, 4]
  %3316[FLOAT, 8x8x1x1]
  %3317[FLOAT, 8]
  %3319[FLOAT, 2x8x3x3]
  %3320[FLOAT, 2]
  %3322[FLOAT, 128x256x3x3]
  %3323[FLOAT, 128]
  %3325[FLOAT, 32x128x1x1]
  %3326[FLOAT, 32]
  %3328[FLOAT, 32x32x1x1]
  %3329[FLOAT, 32]
  %3331[FLOAT, 32x32x3x3]
  %3332[FLOAT, 32]
  %3334[FLOAT, 64x64x1x1]
  %3335[FLOAT, 64]
  %3337[FLOAT, 32x64x3x3]
  %3338[FLOAT, 32]
  %3340[FLOAT, 16x32x3x3]
  %3341[FLOAT, 16]
  %3343[FLOAT, 4x16x1x1]
  %3344[FLOAT, 4]
  %3346[FLOAT, 4x4x1x1]
  %3347[FLOAT, 4]
  %3349[FLOAT, 4x4x3x3]
  %3350[FLOAT, 4]
  %3352[FLOAT, 8x8x1x1]
  %3353[FLOAT, 8]
  %3355[FLOAT, 2x8x3x3]
  %3356[FLOAT, 2]
) {
  %597 = Constant[value = <Tensor>]()
  %598 = Constant[value = <Tensor>]()
  %599 = Constant[value = <Tensor>]()
  %600 = Constant[value = <Tensor>]()
  %601 = Slice(%images, %598, %599, %597, %600)
  %602 = Constant[value = <Tensor>]()
  %603 = Constant[value = <Tensor>]()
  %604 = Constant[value = <Tensor>]()
  %605 = Constant[value = <Tensor>]()
  %606 = Slice(%601, %603, %604, %602, %605)
  %607 = Constant[value = <Tensor>]()
  %608 = Constant[value = <Tensor>]()
  %609 = Constant[value = <Tensor>]()
  %610 = Constant[value = <Tensor>]()
  %611 = Slice(%images, %608, %609, %607, %610)
  %612 = Constant[value = <Tensor>]()
  %613 = Constant[value = <Tensor>]()
  %614 = Constant[value = <Tensor>]()
  %615 = Constant[value = <Tensor>]()
  %616 = Slice(%611, %613, %614, %612, %615)
  %617 = Constant[value = <Tensor>]()
  %618 = Constant[value = <Tensor>]()
  %619 = Constant[value = <Tensor>]()
  %620 = Constant[value = <Tensor>]()
  %621 = Slice(%images, %618, %619, %617, %620)
  %622 = Constant[value = <Tensor>]()
  %623 = Constant[value = <Tensor>]()
  %624 = Constant[value = <Tensor>]()
  %625 = Constant[value = <Tensor>]()
  %626 = Slice(%621, %623, %624, %622, %625)
  %627 = Constant[value = <Tensor>]()
  %628 = Constant[value = <Tensor>]()
  %629 = Constant[value = <Tensor>]()
  %630 = Constant[value = <Tensor>]()
  %631 = Slice(%images, %628, %629, %627, %630)
  %632 = Constant[value = <Tensor>]()
  %633 = Constant[value = <Tensor>]()
  %634 = Constant[value = <Tensor>]()
  %635 = Constant[value = <Tensor>]()
  %636 = Slice(%631, %633, %634, %632, %635)
  %637 = Concat[axis = 1](%606, %616, %626, %636)
  %3123 = Conv[dilations = [1, 1], group = 1, kernel_shape = [3, 3], pads = [1, 1, 1, 1], strides = [1, 1]](%637, %3124, %3125)
  %640 = Constant[value = <Scalar Tensor []>]()
  %641 = Add(%3123, %640)
  %642 = Constant[value = <Scalar Tensor []>]()
  %643 = Constant[value = <Scalar Tensor []>]()
  %644 = Clip(%641, %642, %643)
  %645 = Mul(%3123, %644)
  %646 = Constant[value = <Scalar Tensor []>]()
  %647 = Div(%645, %646)
  %3126 = Conv[dilations = [1, 1], group = 1, kernel_shape = [3, 3], pads = [1, 1, 1, 1], strides = [2, 2]](%647, %3127, %3128)
  %650 = Constant[value = <Scalar Tensor []>]()
  %651 = Add(%3126, %650)
  %652 = Constant[value = <Scalar Tensor []>]()
  %653 = Constant[value = <Scalar Tensor []>]()
  %654 = Clip(%651, %652, %653)
  %655 = Mul(%3126, %654)
  %656 = Constant[value = <Scalar Tensor []>]()
  %657 = Div(%655, %656)
  %3129 = Conv[dilations = [1, 1], group = 1, kernel_shape = [1, 1], pads = [0, 0, 0, 0], strides = [1, 1]](%657, %3130, %3131)
  %660 = Constant[value = <Scalar Tensor []>]()
  %661 = Add(%3129, %660)
  %662 = Constant[value = <Scalar Tensor []>]()
  %663 = Constant[value = <Scalar Tensor []>]()
  %664 = Clip(%661, %662, %663)
  %665 = Mul(%3129, %664)
  %666 = Constant[value = <Scalar Tensor []>]()
  %667 = Div(%665, %666)
  %3132 = Conv[dilations = [1, 1], group = 1, kernel_shape = [1, 1], pads = [0, 0, 0, 0], strides = [1, 1]](%667, %3133, %3134)
  %670 = Constant[value = <Scalar Tensor []>]()
  %671 = Add(%3132, %670)
  %672 = Constant[value = <Scalar Tensor []>]()
  %673 = Constant[value = <Scalar Tensor []>]()
  %674 = Clip(%671, %672, %673)
  %675 = Mul(%3132, %674)
  %676 = Constant[value = <Scalar Tensor []>]()
  %677 = Div(%675, %676)
  %3135 = Conv[dilations = [1, 1], group = 1, kernel_shape = [3, 3], pads = [1, 1, 1, 1], strides = [1, 1]](%677, %3136, %3137)
  %680 = Constant[value = <Scalar Tensor []>]()
  %681 = Add(%3135, %680)
  %682 = Constant[value = <Scalar Tensor []>]()
  %683 = Constant[value = <Scalar Tensor []>]()
  %684 = Clip(%681, %682, %683)
  %685 = Mul(%3135, %684)
  %686 = Constant[value = <Scalar Tensor []>]()
  %687 = Div(%685, %686)
  %688 = Add(%667, %687)
  %689 = Conv[dilations = [1, 1], group = 1, kernel_shape = [1, 1], pads = [0, 0, 0, 0], strides = [1, 1]](%688, %model.2.cv3.weight)
  %690 = Conv[dilations = [1, 1], group = 1, kernel_shape = [1, 1], pads = [0, 0, 0, 0], strides = [1, 1]](%657, %model.2.cv2.weight)
  %691 = Concat[axis = 1](%689, %690)
  %692 = BatchNormalization[epsilon = 0.00100000004749745, momentum = 0.970000028610229](%691, %model.2.bn.weight, %model.2.bn.bias, %model.2.bn.running_mean, %model.2.bn.running_var)
  %693 = LeakyRelu[alpha = 0.100000001490116](%692)
  %3138 = Conv[dilations = [1, 1], group = 1, kernel_shape = [1, 1], pads = [0, 0, 0, 0], strides = [1, 1]](%693, %3139, %3140)
  %696 = Constant[value = <Scalar Tensor []>]()
  %697 = Add(%3138, %696)
  %698 = Constant[value = <Scalar Tensor []>]()
  %699 = Constant[value = <Scalar Tensor []>]()
  %700 = Clip(%697, %698, %699)
  %701 = Mul(%3138, %700)
  %702 = Constant[value = <Scalar Tensor []>]()
  %703 = Div(%701, %702)
  %3141 = Conv[dilations = [1, 1], group = 1, kernel_shape = [3, 3], pads = [1, 1, 1, 1], strides = [2, 2]](%703, %3142, %3143)
  %706 = Constant[value = <Scalar Tensor []>]()
  %707 = Add(%3141, %706)
  %708 = Constant[value = <Scalar Tensor []>]()
  %709 = Constant[value = <Scalar Tensor []>]()
  %710 = Clip(%707, %708, %709)
  %711 = Mul(%3141, %710)
  %712 = Constant[value = <Scalar Tensor []>]()
  %713 = Div(%711, %712)
  %3144 = Conv[dilations = [1, 1], group = 1, kernel_shape = [1, 1], pads = [0, 0, 0, 0], strides = [1, 1]](%713, %3145, %3146)
  %716 = Constant[value = <Scalar Tensor []>]()
  %717 = Add(%3144, %716)
  %718 = Constant[value = <Scalar Tensor []>]()
  %719 = Constant[value = <Scalar Tensor []>]()
  %720 = Clip(%717, %718, %719)
  %721 = Mul(%3144, %720)
  %722 = Constant[value = <Scalar Tensor []>]()
  %723 = Div(%721, %722)
  %3147 = Conv[dilations = [1, 1], group = 1, kernel_shape = [1, 1], pads = [0, 0, 0, 0], strides = [1, 1]](%723, %3148, %3149)
  %726 = Constant[value = <Scalar Tensor []>]()
  %727 = Add(%3147, %726)
  %728 = Constant[value = <Scalar Tensor []>]()
  %729 = Constant[value = <Scalar Tensor []>]()
  %730 = Clip(%727, %728, %729)
  %731 = Mul(%3147, %730)
  %732 = Constant[value = <Scalar Tensor []>]()
  %733 = Div(%731, %732)
  %3150 = Conv[dilations = [1, 1], group = 1, kernel_shape = [3, 3], pads = [1, 1, 1, 1], strides = [1, 1]](%733, %3151, %3152)
  %736 = Constant[value = <Scalar Tensor []>]()
  %737 = Add(%3150, %736)
  %738 = Constant[value = <Scalar Tensor []>]()
  %739 = Constant[value = <Scalar Tensor []>]()
  %740 = Clip(%737, %738, %739)
  %741 = Mul(%3150, %740)
  %742 = Constant[value = <Scalar Tensor []>]()
  %743 = Div(%741, %742)
  %744 = Add(%723, %743)
  %3153 = Conv[dilations = [1, 1], group = 1, kernel_shape = [1, 1], pads = [0, 0, 0, 0], strides = [1, 1]](%744, %3154, %3155)
  %747 = Constant[value = <Scalar Tensor []>]()
  %748 = Add(%3153, %747)
  %749 = Constant[value = <Scalar Tensor []>]()
  %750 = Constant[value = <Scalar Tensor []>]()
  %751 = Clip(%748, %749, %750)
  %752 = Mul(%3153, %751)
  %753 = Constant[value = <Scalar Tensor []>]()
  %754 = Div(%752, %753)
  %3156 = Conv[dilations = [1, 1], group = 1, kernel_shape = [3, 3], pads = [1, 1, 1, 1], strides = [1, 1]](%754, %3157, %3158)
  %757 = Constant[value = <Scalar Tensor []>]()
  %758 = Add(%3156, %757)
  %759 = Constant[value = <Scalar Tensor []>]()
  %760 = Constant[value = <Scalar Tensor []>]()
  %761 = Clip(%758, %759, %760)
  %762 = Mul(%3156, %761)
  %763 = Constant[value = <Scalar Tensor []>]()
  %764 = Div(%762, %763)
  %765 = Add(%744, %764)
  %3159 = Conv[dilations = [1, 1], group = 1, kernel_shape = [1, 1], pads = [0, 0, 0, 0], strides = [1, 1]](%765, %3160, %3161)
  %768 = Constant[value = <Scalar Tensor []>]()
  %769 = Add(%3159, %768)
  %770 = Constant[value = <Scalar Tensor []>]()
  %771 = Constant[value = <Scalar Tensor []>]()
  %772 = Clip(%769, %770, %771)
  %773 = Mul(%3159, %772)
  %774 = Constant[value = <Scalar Tensor []>]()
  %775 = Div(%773, %774)
  %3162 = Conv[dilations = [1, 1], group = 1, kernel_shape = [3, 3], pads = [1, 1, 1, 1], strides = [1, 1]](%775, %3163, %3164)
  %778 = Constant[value = <Scalar Tensor []>]()
  %779 = Add(%3162, %778)
  %780 = Constant[value = <Scalar Tensor []>]()
  %781 = Constant[value = <Scalar Tensor []>]()
  %782 = Clip(%779, %780, %781)
  %783 = Mul(%3162, %782)
  %784 = Constant[value = <Scalar Tensor []>]()
  %785 = Div(%783, %784)
  %786 = Add(%765, %785)
  %787 = Conv[dilations = [1, 1], group = 1, kernel_shape = [1, 1], pads = [0, 0, 0, 0], strides = [1, 1]](%786, %model.4.cv3.weight)
  %788 = Conv[dilations = [1, 1], group = 1, kernel_shape = [1, 1], pads = [0, 0, 0, 0], strides = [1, 1]](%713, %model.4.cv2.weight)
  %789 = Concat[axis = 1](%787, %788)
  %790 = BatchNormalization[epsilon = 0.00100000004749745, momentum = 0.970000028610229](%789, %model.4.bn.weight, %model.4.bn.bias, %model.4.bn.running_mean, %model.4.bn.running_var)
  %791 = LeakyRelu[alpha = 0.100000001490116](%790)
  %3165 = Conv[dilations = [1, 1], group = 1, kernel_shape = [1, 1], pads = [0, 0, 0, 0], strides = [1, 1]](%791, %3166, %3167)
  %794 = Constant[value = <Scalar Tensor []>]()
  %795 = Add(%3165, %794)
  %796 = Constant[value = <Scalar Tensor []>]()
  %797 = Constant[value = <Scalar Tensor []>]()
  %798 = Clip(%795, %796, %797)
  %799 = Mul(%3165, %798)
  %800 = Constant[value = <Scalar Tensor []>]()
  %801 = Div(%799, %800)
  %3168 = Conv[dilations = [1, 1], group = 1, kernel_shape = [3, 3], pads = [1, 1, 1, 1], strides = [2, 2]](%801, %3169, %3170)
  %804 = Constant[value = <Scalar Tensor []>]()
  %805 = Add(%3168, %804)
  %806 = Constant[value = <Scalar Tensor []>]()
  %807 = Constant[value = <Scalar Tensor []>]()
  %808 = Clip(%805, %806, %807)
  %809 = Mul(%3168, %808)
  %810 = Constant[value = <Scalar Tensor []>]()
  %811 = Div(%809, %810)
  %3171 = Conv[dilations = [1, 1], group = 1, kernel_shape = [1, 1], pads = [0, 0, 0, 0], strides = [1, 1]](%811, %3172, %3173)
  %814 = Constant[value = <Scalar Tensor []>]()
  %815 = Add(%3171, %814)
  %816 = Constant[value = <Scalar Tensor []>]()
  %817 = Constant[value = <Scalar Tensor []>]()
  %818 = Clip(%815, %816, %817)
  %819 = Mul(%3171, %818)
  %820 = Constant[value = <Scalar Tensor []>]()
  %821 = Div(%819, %820)
  %3174 = Conv[dilations = [1, 1], group = 1, kernel_shape = [1, 1], pads = [0, 0, 0, 0], strides = [1, 1]](%821, %3175, %3176)
  %824 = Constant[value = <Scalar Tensor []>]()
  %825 = Add(%3174, %824)
  %826 = Constant[value = <Scalar Tensor []>]()
  %827 = Constant[value = <Scalar Tensor []>]()
  %828 = Clip(%825, %826, %827)
  %829 = Mul(%3174, %828)
  %830 = Constant[value = <Scalar Tensor []>]()
  %831 = Div(%829, %830)
  %3177 = Conv[dilations = [1, 1], group = 1, kernel_shape = [3, 3], pads = [1, 1, 1, 1], strides = [1, 1]](%831, %3178, %3179)
  %834 = Constant[value = <Scalar Tensor []>]()
  %835 = Add(%3177, %834)
  %836 = Constant[value = <Scalar Tensor []>]()
  %837 = Constant[value = <Scalar Tensor []>]()
  %838 = Clip(%835, %836, %837)
  %839 = Mul(%3177, %838)
  %840 = Constant[value = <Scalar Tensor []>]()
  %841 = Div(%839, %840)
  %842 = Add(%821, %841)
  %3180 = Conv[dilations = [1, 1], group = 1, kernel_shape = [1, 1], pads = [0, 0, 0, 0], strides = [1, 1]](%842, %3181, %3182)
  %845 = Constant[value = <Scalar Tensor []>]()
  %846 = Add(%3180, %845)
  %847 = Constant[value = <Scalar Tensor []>]()
  %848 = Constant[value = <Scalar Tensor []>]()
  %849 = Clip(%846, %847, %848)
  %850 = Mul(%3180, %849)
  %851 = Constant[value = <Scalar Tensor []>]()
  %852 = Div(%850, %851)
  %3183 = Conv[dilations = [1, 1], group = 1, kernel_shape = [3, 3], pads = [1, 1, 1, 1], strides = [1, 1]](%852, %3184, %3185)
  %855 = Constant[value = <Scalar Tensor []>]()
  %856 = Add(%3183, %855)
  %857 = Constant[value = <Scalar Tensor []>]()
  %858 = Constant[value = <Scalar Tensor []>]()
  %859 = Clip(%856, %857, %858)
  %860 = Mul(%3183, %859)
  %861 = Constant[value = <Scalar Tensor []>]()
  %862 = Div(%860, %861)
  %863 = Add(%842, %862)
  %3186 = Conv[dilations = [1, 1], group = 1, kernel_shape = [1, 1], pads = [0, 0, 0, 0], strides = [1, 1]](%863, %3187, %3188)
  %866 = Constant[value = <Scalar Tensor []>]()
  %867 = Add(%3186, %866)
  %868 = Constant[value = <Scalar Tensor []>]()
  %869 = Constant[value = <Scalar Tensor []>]()
  %870 = Clip(%867, %868, %869)
  %871 = Mul(%3186, %870)
  %872 = Constant[value = <Scalar Tensor []>]()
  %873 = Div(%871, %872)
  %3189 = Conv[dilations = [1, 1], group = 1, kernel_shape = [3, 3], pads = [1, 1, 1, 1], strides = [1, 1]](%873, %3190, %3191)
  %876 = Constant[value = <Scalar Tensor []>]()
  %877 = Add(%3189, %876)
  %878 = Constant[value = <Scalar Tensor []>]()
  %879 = Constant[value = <Scalar Tensor []>]()
  %880 = Clip(%877, %878, %879)
  %881 = Mul(%3189, %880)
  %882 = Constant[value = <Scalar Tensor []>]()
  %883 = Div(%881, %882)
  %884 = Add(%863, %883)
  %885 = Conv[dilations = [1, 1], group = 1, kernel_shape = [1, 1], pads = [0, 0, 0, 0], strides = [1, 1]](%884, %model.6.cv3.weight)
  %886 = Conv[dilations = [1, 1], group = 1, kernel_shape = [1, 1], pads = [0, 0, 0, 0], strides = [1, 1]](%811, %model.6.cv2.weight)
  %887 = Concat[axis = 1](%885, %886)
  %888 = BatchNormalization[epsilon = 0.00100000004749745, momentum = 0.970000028610229](%887, %model.6.bn.weight, %model.6.bn.bias, %model.6.bn.running_mean, %model.6.bn.running_var)
  %889 = LeakyRelu[alpha = 0.100000001490116](%888)
  %3192 = Conv[dilations = [1, 1], group = 1, kernel_shape = [1, 1], pads = [0, 0, 0, 0], strides = [1, 1]](%889, %3193, %3194)
  %892 = Constant[value = <Scalar Tensor []>]()
  %893 = Add(%3192, %892)
  %894 = Constant[value = <Scalar Tensor []>]()
  %895 = Constant[value = <Scalar Tensor []>]()
  %896 = Clip(%893, %894, %895)
  %897 = Mul(%3192, %896)
  %898 = Constant[value = <Scalar Tensor []>]()
  %899 = Div(%897, %898)
  %3195 = Conv[dilations = [1, 1], group = 1, kernel_shape = [3, 3], pads = [1, 1, 1, 1], strides = [2, 2]](%899, %3196, %3197)
  %902 = Constant[value = <Scalar Tensor []>]()
  %903 = Add(%3195, %902)
  %904 = Constant[value = <Scalar Tensor []>]()
  %905 = Constant[value = <Scalar Tensor []>]()
  %906 = Clip(%903, %904, %905)
  %907 = Mul(%3195, %906)
  %908 = Constant[value = <Scalar Tensor []>]()
  %909 = Div(%907, %908)
  %3198 = Conv[dilations = [1, 1], group = 1, kernel_shape = [1, 1], pads = [0, 0, 0, 0], strides = [1, 1]](%909, %3199, %3200)
  %912 = Constant[value = <Scalar Tensor []>]()
  %913 = Add(%3198, %912)
  %914 = Constant[value = <Scalar Tensor []>]()
  %915 = Constant[value = <Scalar Tensor []>]()
  %916 = Clip(%913, %914, %915)
  %917 = Mul(%3198, %916)
  %918 = Constant[value = <Scalar Tensor []>]()
  %919 = Div(%917, %918)
  %920 = MaxPool[ceil_mode = 0, kernel_shape = [5, 5], pads = [2, 2, 2, 2], strides = [1, 1]](%919)
  %921 = MaxPool[ceil_mode = 0, kernel_shape = [9, 9], pads = [4, 4, 4, 4], strides = [1, 1]](%919)
  %922 = MaxPool[ceil_mode = 0, kernel_shape = [13, 13], pads = [6, 6, 6, 6], strides = [1, 1]](%919)
  %923 = Concat[axis = 1](%919, %920, %921, %922)
  %3201 = Conv[dilations = [1, 1], group = 1, kernel_shape = [1, 1], pads = [0, 0, 0, 0], strides = [1, 1]](%923, %3202, %3203)
  %926 = Constant[value = <Scalar Tensor []>]()
  %927 = Add(%3201, %926)
  %928 = Constant[value = <Scalar Tensor []>]()
  %929 = Constant[value = <Scalar Tensor []>]()
  %930 = Clip(%927, %928, %929)
  %931 = Mul(%3201, %930)
  %932 = Constant[value = <Scalar Tensor []>]()
  %933 = Div(%931, %932)
  %3204 = Conv[dilations = [1, 1], group = 1, kernel_shape = [1, 1], pads = [0, 0, 0, 0], strides = [1, 1]](%933, %3205, %3206)
  %936 = Constant[value = <Scalar Tensor []>]()
  %937 = Add(%3204, %936)
  %938 = Constant[value = <Scalar Tensor []>]()
  %939 = Constant[value = <Scalar Tensor []>]()
  %940 = Clip(%937, %938, %939)
  %941 = Mul(%3204, %940)
  %942 = Constant[value = <Scalar Tensor []>]()
  %943 = Div(%941, %942)
  %3207 = Conv[dilations = [1, 1], group = 1, kernel_shape = [1, 1], pads = [0, 0, 0, 0], strides = [1, 1]](%943, %3208, %3209)
  %946 = Constant[value = <Scalar Tensor []>]()
  %947 = Add(%3207, %946)
  %948 = Constant[value = <Scalar Tensor []>]()
  %949 = Constant[value = <Scalar Tensor []>]()
  %950 = Clip(%947, %948, %949)
  %951 = Mul(%3207, %950)
  %952 = Constant[value = <Scalar Tensor []>]()
  %953 = Div(%951, %952)
  %3210 = Conv[dilations = [1, 1], group = 1, kernel_shape = [3, 3], pads = [1, 1, 1, 1], strides = [1, 1]](%953, %3211, %3212)
  %956 = Constant[value = <Scalar Tensor []>]()
  %957 = Add(%3210, %956)
  %958 = Constant[value = <Scalar Tensor []>]()
  %959 = Constant[value = <Scalar Tensor []>]()
  %960 = Clip(%957, %958, %959)
  %961 = Mul(%3210, %960)
  %962 = Constant[value = <Scalar Tensor []>]()
  %963 = Div(%961, %962)
  %964 = Conv[dilations = [1, 1], group = 1, kernel_shape = [1, 1], pads = [0, 0, 0, 0], strides = [1, 1]](%963, %model.9.cv3.weight)
  %965 = Conv[dilations = [1, 1], group = 1, kernel_shape = [1, 1], pads = [0, 0, 0, 0], strides = [1, 1]](%933, %model.9.cv2.weight)
  %966 = Concat[axis = 1](%964, %965)
  %967 = BatchNormalization[epsilon = 0.00100000004749745, momentum = 0.970000028610229](%966, %model.9.bn.weight, %model.9.bn.bias, %model.9.bn.running_mean, %model.9.bn.running_var)
  %968 = LeakyRelu[alpha = 0.100000001490116](%967)
  %3213 = Conv[dilations = [1, 1], group = 1, kernel_shape = [1, 1], pads = [0, 0, 0, 0], strides = [1, 1]](%968, %3214, %3215)
  %971 = Constant[value = <Scalar Tensor []>]()
  %972 = Add(%3213, %971)
  %973 = Constant[value = <Scalar Tensor []>]()
  %974 = Constant[value = <Scalar Tensor []>]()
  %975 = Clip(%972, %973, %974)
  %976 = Mul(%3213, %975)
  %977 = Constant[value = <Scalar Tensor []>]()
  %978 = Div(%976, %977)
  %3216 = Conv[dilations = [1, 1], group = 1, kernel_shape = [1, 1], pads = [0, 0, 0, 0], strides = [1, 1]](%978, %3217, %3218)
  %981 = Constant[value = <Scalar Tensor []>]()
  %982 = Add(%3216, %981)
  %983 = Constant[value = <Scalar Tensor []>]()
  %984 = Constant[value = <Scalar Tensor []>]()
  %985 = Clip(%982, %983, %984)
  %986 = Mul(%3216, %985)
  %987 = Constant[value = <Scalar Tensor []>]()
  %988 = Div(%986, %987)
  %989 = Shape(%988)
  %990 = Constant[value = <Tensor>]()
  %991 = Constant[value = <Tensor>]()
  %992 = Constant[value = <Tensor>]()
  %993 = Slice(%989, %991, %992, %990)
  %994 = Constant[value = <Tensor>]()
  %995 = Concat[axis = 0](%993, %994)
  %996 = Reshape(%988, %995)
  %997 = Transpose[perm = [2, 0, 1]](%996)
  %998 = Shape(%988)
  %999 = Constant[value = <Scalar Tensor []>]()
  %1000 = Gather[axis = 0](%998, %999)
  %1001 = Shape(%988)
  %1002 = Constant[value = <Scalar Tensor []>]()
  %1003 = Gather[axis = 0](%1001, %1002)
  %1004 = Constant[value = <Scalar Tensor []>]()
  %1005 = Div(%1000, %1004)
  %1006 = Cast[to = 7](%1005)
  %1007 = Cast[to = 7](%1006)
  %1008 = Constant[value = <Scalar Tensor []>]()
  %1009 = Gather[axis = 1](%988, %1008)
  %1010 = Shape(%1009)
  %1011 = ConstantOfShape[value = <Tensor>](%1010)
  %1012 = bitwise_not(%1011)
  %1013 = Constant[value = <Scalar Tensor []>]()
  %1014 = Cast[to = 1](%1012)
  %1015 = CumSum(%1014, %1013)
  %1016 = Constant[value = <Scalar Tensor []>]()
  %1017 = Cast[to = 1](%1012)
  %1018 = CumSum(%1017, %1016)
  %1019 = Constant[value = <Tensor>]()
  %1020 = Constant[value = <Tensor>]()
  %1021 = Constant[value = <Tensor>]()
  %1022 = Constant[value = <Tensor>]()
  %1023 = Slice(%1015, %1020, %1021, %1019, %1022)
  %1024 = Constant[value = <Scalar Tensor []>]()
  %1025 = Add(%1023, %1024)
  %1026 = Div(%1015, %1025)
  %1027 = Constant[value = <Scalar Tensor []>]()
  %1028 = Mul(%1026, %1027)
  %1029 = Constant[value = <Tensor>]()
  %1030 = Constant[value = <Tensor>]()
  %1031 = Constant[value = <Tensor>]()
  %1032 = Constant[value = <Tensor>]()
  %1033 = Slice(%1018, %1030, %1031, %1029, %1032)
  %1034 = Constant[value = <Scalar Tensor []>]()
  %1035 = Add(%1033, %1034)
  %1036 = Div(%1018, %1035)
  %1037 = Constant[value = <Scalar Tensor []>]()
  %1038 = Mul(%1036, %1037)
  %1039 = Cast[to = 1](%1007)
  %1040 = Constant[value = <Scalar Tensor []>]()
  %1041 = Constant[value = <Scalar Tensor []>]()
  %1042 = Range(%1040, %1039, %1041)
  %1043 = Constant[value = <Scalar Tensor []>]()
  %1044 = Div(%1042, %1043)
  %1045 = Cast[to = 7](%1044)
  %1046 = Cast[to = 1](%1045)
  %1047 = Constant[value = <Scalar Tensor []>]()
  %1048 = Mul(%1046, %1047)
  %1049 = Cast[to = 1](%1007)
  %1050 = Div(%1048, %1049)
  %1051 = Constant[value = <Scalar Tensor []>]()
  %1052 = Pow(%1051, %1050)
  %1053 = Unsqueeze[axes = [3]](%1038)
  %1054 = Div(%1053, %1052)
  %1055 = Unsqueeze[axes = [3]](%1028)
  %1056 = Div(%1055, %1052)
  %1057 = Constant[value = <Tensor>]()
  %1058 = Constant[value = <Tensor>]()
  %1059 = Constant[value = <Tensor>]()
  %1060 = Constant[value = <Tensor>]()
  %1061 = Slice(%1054, %1058, %1059, %1057, %1060)
  %1062 = Sin(%1061)
  %1063 = Constant[value = <Tensor>]()
  %1064 = Constant[value = <Tensor>]()
  %1065 = Constant[value = <Tensor>]()
  %1066 = Constant[value = <Tensor>]()
  %1067 = Slice(%1054, %1064, %1065, %1063, %1066)
  %1068 = Cos(%1067)
  %1069 = Unsqueeze[axes = [4]](%1062)
  %1070 = Unsqueeze[axes = [4]](%1068)
  %1071 = Concat[axis = 4](%1069, %1070)
  %1072 = Shape(%1071)
  %1073 = Constant[value = <Tensor>]()
  %1074 = Constant[value = <Tensor>]()
  %1075 = Constant[value = <Tensor>]()
  %1076 = Slice(%1072, %1074, %1075, %1073)
  %1077 = Constant[value = <Tensor>]()
  %1078 = Concat[axis = 0](%1076, %1077)
  %1079 = Reshape(%1071, %1078)
  %1080 = Constant[value = <Tensor>]()
  %1081 = Constant[value = <Tensor>]()
  %1082 = Constant[value = <Tensor>]()
  %1083 = Constant[value = <Tensor>]()
  %1084 = Slice(%1056, %1081, %1082, %1080, %1083)
  %1085 = Sin(%1084)
  %1086 = Constant[value = <Tensor>]()
  %1087 = Constant[value = <Tensor>]()
  %1088 = Constant[value = <Tensor>]()
  %1089 = Constant[value = <Tensor>]()
  %1090 = Slice(%1056, %1087, %1088, %1086, %1089)
  %1091 = Cos(%1090)
  %1092 = Unsqueeze[axes = [4]](%1085)
  %1093 = Unsqueeze[axes = [4]](%1091)
  %1094 = Concat[axis = 4](%1092, %1093)
  %1095 = Shape(%1094)
  %1096 = Constant[value = <Tensor>]()
  %1097 = Constant[value = <Tensor>]()
  %1098 = Constant[value = <Tensor>]()
  %1099 = Slice(%1095, %1097, %1098, %1096)
  %1100 = Constant[value = <Tensor>]()
  %1101 = Concat[axis = 0](%1099, %1100)
  %1102 = Reshape(%1094, %1101)
  %1103 = Concat[axis = 3](%1102, %1079)
  %1104 = Transpose[perm = [0, 3, 1, 2]](%1103)
  %1105 = Shape(%1104)
  %1106 = Constant[value = <Tensor>]()
  %1107 = Constant[value = <Tensor>]()
  %1108 = Constant[value = <Tensor>]()
  %1109 = Slice(%1105, %1107, %1108, %1106)
  %1110 = Constant[value = <Tensor>]()
  %1111 = Concat[axis = 0](%1109, %1110)
  %1112 = Reshape(%1104, %1111)
  %1113 = Transpose[perm = [2, 0, 1]](%1112)
  %1114 = Add(%997, %1113)
  %1115 = Shape(%1114)
  %1116 = Constant[value = <Scalar Tensor []>]()
  %1117 = Gather[axis = 0](%1115, %1116)
  %1118 = Shape(%1114)
  %1119 = Constant[value = <Scalar Tensor []>]()
  %1120 = Gather[axis = 0](%1118, %1119)
  %1121 = Shape(%1114)
  %1122 = Constant[value = <Scalar Tensor []>]()
  %1123 = Gather[axis = 0](%1121, %1122)
  %1124 = Constant[value = <Scalar Tensor []>]()
  %1125 = Div(%1123, %1124)
  %1126 = Cast[to = 7](%1125)
  %1127 = Cast[to = 7](%1126)
  %1128 = Constant[value = <Scalar Tensor []>]()
  %1129 = Constant[value = <Scalar Tensor []>]()
  %1130 = Unsqueeze[axes = [0]](%1129)
  %1131 = Unsqueeze[axes = [0]](%1123)
  %1132 = Unsqueeze[axes = [0]](%1128)
  %1133 = Constant[value = <Tensor>]()
  %1134 = Slice(%model.11.transformer_encoder.layers.0.self_attn.in_proj_weight, %1130, %1131, %1132, %1133)
  %1135 = Constant[value = <Scalar Tensor []>]()
  %1136 = Constant[value = <Scalar Tensor []>]()
  %1137 = Unsqueeze[axes = [0]](%1136)
  %1138 = Unsqueeze[axes = [0]](%1123)
  %1139 = Unsqueeze[axes = [0]](%1135)
  %1140 = Constant[value = <Tensor>]()
  %1141 = Slice(%model.11.transformer_encoder.layers.0.self_attn.in_proj_bias, %1137, %1138, %1139, %1140)
  %1142 = Transpose[perm = [1, 0]](%1134)
  %1143 = MatMul(%1114, %1142)
  %1144 = Add(%1143, %1141)
  %1145 = Constant[value = <Scalar Tensor []>]()
  %1146 = Mul(%1123, %1145)
  %1147 = Constant[value = <Scalar Tensor []>]()
  %1148 = Unsqueeze[axes = [0]](%1123)
  %1149 = Unsqueeze[axes = [0]](%1146)
  %1150 = Unsqueeze[axes = [0]](%1147)
  %1151 = Constant[value = <Tensor>]()
  %1152 = Slice(%model.11.transformer_encoder.layers.0.self_attn.in_proj_weight, %1148, %1149, %1150, %1151)
  %1153 = Constant[value = <Scalar Tensor []>]()
  %1154 = Unsqueeze[axes = [0]](%1123)
  %1155 = Unsqueeze[axes = [0]](%1146)
  %1156 = Unsqueeze[axes = [0]](%1153)
  %1157 = Constant[value = <Tensor>]()
  %1158 = Slice(%model.11.transformer_encoder.layers.0.self_attn.in_proj_bias, %1154, %1155, %1156, %1157)
  %1159 = Transpose[perm = [1, 0]](%1152)
  %1160 = MatMul(%1114, %1159)
  %1161 = Add(%1160, %1158)
  %1162 = Constant[value = <Scalar Tensor []>]()
  %1163 = Mul(%1123, %1162)
  %1164 = Constant[value = <Scalar Tensor []>]()
  %1165 = Constant[value = <Scalar Tensor []>]()
  %1166 = Unsqueeze[axes = [0]](%1163)
  %1167 = Unsqueeze[axes = [0]](%1165)
  %1168 = Unsqueeze[axes = [0]](%1164)
  %1169 = Constant[value = <Tensor>]()
  %1170 = Slice(%model.11.transformer_encoder.layers.0.self_attn.in_proj_weight, %1166, %1167, %1168, %1169)
  %1171 = Constant[value = <Scalar Tensor []>]()
  %1172 = Constant[value = <Scalar Tensor []>]()
  %1173 = Unsqueeze[axes = [0]](%1163)
  %1174 = Unsqueeze[axes = [0]](%1172)
  %1175 = Unsqueeze[axes = [0]](%1171)
  %1176 = Constant[value = <Tensor>]()
  %1177 = Slice(%model.11.transformer_encoder.layers.0.self_attn.in_proj_bias, %1173, %1174, %1175, %1176)
  %1178 = Transpose[perm = [1, 0]](%1170)
  %1179 = MatMul(%997, %1178)
  %1180 = Add(%1179, %1177)
  %1181 = Constant[value = <Scalar Tensor []>]()
  %1182 = Mul(%1144, %1181)
  %1183 = Constant[value = <Scalar Tensor []>]()
  %1184 = Mul(%1120, %1183)
  %1185 = Unsqueeze[axes = [0]](%1117)
  %1186 = Unsqueeze[axes = [0]](%1184)
  %1187 = Unsqueeze[axes = [0]](%1127)
  %1188 = Concat[axis = 0](%1185, %1186, %1187)
  %1189 = Reshape(%1182, %1188)
  %1190 = Transpose[perm = [1, 0, 2]](%1189)
  %1191 = Constant[value = <Scalar Tensor []>]()
  %1192 = Mul(%1120, %1191)
  %1193 = Constant[value = <Scalar Tensor []>]()
  %1194 = Unsqueeze[axes = [0]](%1193)
  %1195 = Unsqueeze[axes = [0]](%1192)
  %1196 = Unsqueeze[axes = [0]](%1127)
  %1197 = Concat[axis = 0](%1194, %1195, %1196)
  %1198 = Reshape(%1161, %1197)
  %1199 = Constant[value = <Scalar Tensor []>]()
  %1200 = Mul(%1120, %1199)
  %1201 = Constant[value = <Scalar Tensor []>]()
  %1202 = Unsqueeze[axes = [0]](%1201)
  %1203 = Unsqueeze[axes = [0]](%1200)
  %1204 = Unsqueeze[axes = [0]](%1127)
  %1205 = Concat[axis = 0](%1202, %1203, %1204)
  %1206 = Reshape(%1180, %1205)
  %1207 = Transpose[perm = [1, 0, 2]](%1206)
  %1208 = Transpose[perm = [1, 2, 0]](%1198)
  %1209 = MatMul(%1190, %1208)
  %1210 = Softmax[axis = 2](%1209)
  %1211 = MatMul(%1210, %1207)
  %1212 = Transpose[perm = [1, 0, 2]](%1211)
  %1213 = Unsqueeze[axes = [0]](%1117)
  %1214 = Unsqueeze[axes = [0]](%1120)
  %1215 = Unsqueeze[axes = [0]](%1123)
  %1216 = Concat[axis = 0](%1213, %1214, %1215)
  %1217 = Reshape(%1212, %1216)
  %1218 = Transpose[perm = [1, 0]](%model.11.transformer_encoder.layers.0.self_attn.out_proj.weight)
  %1219 = MatMul(%1217, %1218)
  %1220 = Add(%1219, %model.11.transformer_encoder.layers.0.self_attn.out_proj.bias)
  %1221 = Add(%997, %1220)
  %1222 = ATen[cudnn_enable = 1, eps = 9.99999974737875e-06, normalized_shape = [256], operator = 'layer_norm'](%1221, %model.11.transformer_encoder.layers.0.norm1.weight, %model.11.transformer_encoder.layers.0.norm1.bias)
  %1223 = Transpose[perm = [1, 0]](%model.11.transformer_encoder.layers.0.linear1.weight)
  %1224 = MatMul(%1222, %1223)
  %1225 = Add(%1224, %model.11.transformer_encoder.layers.0.linear1.bias)
  %1226 = Relu(%1225)
  %1227 = Transpose[perm = [1, 0]](%model.11.transformer_encoder.layers.0.linear2.weight)
  %1228 = MatMul(%1226, %1227)
  %1229 = Add(%1228, %model.11.transformer_encoder.layers.0.linear2.bias)
  %1230 = Add(%1222, %1229)
  %1231 = ATen[cudnn_enable = 1, eps = 9.99999974737875e-06, normalized_shape = [256], operator = 'layer_norm'](%1230, %model.11.transformer_encoder.layers.0.norm2.weight, %model.11.transformer_encoder.layers.0.norm2.bias)
  %1232 = Shape(%1231)
  %1233 = Constant[value = <Scalar Tensor []>]()
  %1234 = Gather[axis = 0](%1232, %1233)
  %1235 = Shape(%1231)
  %1236 = Constant[value = <Scalar Tensor []>]()
  %1237 = Gather[axis = 0](%1235, %1236)
  %1238 = Shape(%1231)
  %1239 = Constant[value = <Scalar Tensor []>]()
  %1240 = Gather[axis = 0](%1238, %1239)
  %1241 = Constant[value = <Scalar Tensor []>]()
  %1242 = Mul(%1003, %1241)
  %1243 = Div(%1234, %1242)
  %1244 = Cast[to = 7](%1243)
  %1245 = Cast[to = 7](%1244)
  %1246 = Constant[value = <Scalar Tensor []>]()
  %1247 = Div(%1237, %1246)
  %1248 = Cast[to = 7](%1247)
  %1249 = Cast[to = 7](%1248)
  %1250 = Constant[value = <Scalar Tensor []>]()
  %1251 = Div(%1240, %1250)
  %1252 = Cast[to = 7](%1251)
  %1253 = Cast[to = 7](%1252)
  %1254 = Constant[value = <Scalar Tensor []>]()
  %1255 = Mul(%1249, %1254)
  %1256 = Constant[value = <Scalar Tensor []>]()
  %1257 = Mul(%1253, %1256)
  %1258 = Constant[value = <Scalar Tensor []>]()
  %1259 = Mul(%1003, %1258)
  %1260 = Constant[value = <Scalar Tensor []>]()
  %1261 = Mul(%1245, %1260)
  %1262 = Unsqueeze[axes = [0]](%1003)
  %1263 = Unsqueeze[axes = [0]](%1245)
  %1264 = Unsqueeze[axes = [0]](%1249)
  %1265 = Unsqueeze[axes = [0]](%1253)
  %1266 = Concat[axis = 0](%1262, %1263, %1264, %1265)
  %1267 = Reshape(%1231, %1266)
  %1268 = Transpose[perm = [2, 3, 0, 1]](%1267)
  %1269 = Unsqueeze[axes = [0]](%1255)
  %1270 = Unsqueeze[axes = [0]](%1257)
  %1271 = Unsqueeze[axes = [0]](%1259)
  %1272 = Unsqueeze[axes = [0]](%1261)
  %1273 = Concat[axis = 0](%1269, %1270, %1271, %1272)
  %1274 = Reshape(%1268, %1273)
  %1275 = Concat[axis = 1](%1274, %988)
  %3219 = Conv[dilations = [1, 1], group = 1, kernel_shape = [1, 1], pads = [0, 0, 0, 0], strides = [1, 1]](%1275, %3220, %3221)
  %1278 = Constant[value = <Scalar Tensor []>]()
  %1279 = Add(%3219, %1278)
  %1280 = Constant[value = <Scalar Tensor []>]()
  %1281 = Constant[value = <Scalar Tensor []>]()
  %1282 = Clip(%1279, %1280, %1281)
  %1283 = Mul(%3219, %1282)
  %1284 = Constant[value = <Scalar Tensor []>]()
  %1285 = Div(%1283, %1284)
  %1286 = Constant[value = <Tensor>]()
  %1287 = Constant[value = <Tensor>]()
  %1288 = Concat[axis = 0](%1286, %1287)
  %1289 = Constant[value = <Tensor>]()
  %1290 = Resize[coordinate_transformation_mode = 'asymmetric', cubic_coeff_a = -0.75, mode = 'nearest', nearest_mode = 'floor'](%1285, %1289, %1288)
  %1291 = Concat[axis = 1](%1290, %899)
  %3222 = Conv[dilations = [1, 1], group = 1, kernel_shape = [1, 1], pads = [0, 0, 0, 0], strides = [1, 1]](%1291, %3223, %3224)
  %1294 = Constant[value = <Scalar Tensor []>]()
  %1295 = Add(%3222, %1294)
  %1296 = Constant[value = <Scalar Tensor []>]()
  %1297 = Constant[value = <Scalar Tensor []>]()
  %1298 = Clip(%1295, %1296, %1297)
  %1299 = Mul(%3222, %1298)
  %1300 = Constant[value = <Scalar Tensor []>]()
  %1301 = Div(%1299, %1300)
  %3225 = Conv[dilations = [1, 1], group = 1, kernel_shape = [1, 1], pads = [0, 0, 0, 0], strides = [1, 1]](%1301, %3226, %3227)
  %1304 = Constant[value = <Scalar Tensor []>]()
  %1305 = Add(%3225, %1304)
  %1306 = Constant[value = <Scalar Tensor []>]()
  %1307 = Constant[value = <Scalar Tensor []>]()
  %1308 = Clip(%1305, %1306, %1307)
  %1309 = Mul(%3225, %1308)
  %1310 = Constant[value = <Scalar Tensor []>]()
  %1311 = Div(%1309, %1310)
  %3228 = Conv[dilations = [1, 1], group = 1, kernel_shape = [3, 3], pads = [1, 1, 1, 1], strides = [1, 1]](%1311, %3229, %3230)
  %1314 = Constant[value = <Scalar Tensor []>]()
  %1315 = Add(%3228, %1314)
  %1316 = Constant[value = <Scalar Tensor []>]()
  %1317 = Constant[value = <Scalar Tensor []>]()
  %1318 = Clip(%1315, %1316, %1317)
  %1319 = Mul(%3228, %1318)
  %1320 = Constant[value = <Scalar Tensor []>]()
  %1321 = Div(%1319, %1320)
  %1322 = Conv[dilations = [1, 1], group = 1, kernel_shape = [1, 1], pads = [0, 0, 0, 0], strides = [1, 1]](%1321, %model.16.cv3.weight)
  %1323 = Conv[dilations = [1, 1], group = 1, kernel_shape = [1, 1], pads = [0, 0, 0, 0], strides = [1, 1]](%1291, %model.16.cv2.weight)
  %1324 = Concat[axis = 1](%1322, %1323)
  %1325 = BatchNormalization[epsilon = 0.00100000004749745, momentum = 0.970000028610229](%1324, %model.16.bn.weight, %model.16.bn.bias, %model.16.bn.running_mean, %model.16.bn.running_var)
  %1326 = LeakyRelu[alpha = 0.100000001490116](%1325)
  %3231 = Conv[dilations = [1, 1], group = 1, kernel_shape = [1, 1], pads = [0, 0, 0, 0], strides = [1, 1]](%1326, %3232, %3233)
  %1329 = Constant[value = <Scalar Tensor []>]()
  %1330 = Add(%3231, %1329)
  %1331 = Constant[value = <Scalar Tensor []>]()
  %1332 = Constant[value = <Scalar Tensor []>]()
  %1333 = Clip(%1330, %1331, %1332)
  %1334 = Mul(%3231, %1333)
  %1335 = Constant[value = <Scalar Tensor []>]()
  %1336 = Div(%1334, %1335)
  %3234 = Conv[dilations = [1, 1], group = 1, kernel_shape = [1, 1], pads = [0, 0, 0, 0], strides = [1, 1]](%1336, %3235, %3236)
  %1339 = Constant[value = <Scalar Tensor []>]()
  %1340 = Add(%3234, %1339)
  %1341 = Constant[value = <Scalar Tensor []>]()
  %1342 = Constant[value = <Scalar Tensor []>]()
  %1343 = Clip(%1340, %1341, %1342)
  %1344 = Mul(%3234, %1343)
  %1345 = Constant[value = <Scalar Tensor []>]()
  %1346 = Div(%1344, %1345)
  %1347 = Shape(%1346)
  %1348 = Constant[value = <Tensor>]()
  %1349 = Constant[value = <Tensor>]()
  %1350 = Constant[value = <Tensor>]()
  %1351 = Slice(%1347, %1349, %1350, %1348)
  %1352 = Constant[value = <Tensor>]()
  %1353 = Concat[axis = 0](%1351, %1352)
  %1354 = Reshape(%1346, %1353)
  %1355 = Transpose[perm = [2, 0, 1]](%1354)
  %1356 = Shape(%1346)
  %1357 = Constant[value = <Scalar Tensor []>]()
  %1358 = Gather[axis = 0](%1356, %1357)
  %1359 = Shape(%1346)
  %1360 = Constant[value = <Scalar Tensor []>]()
  %1361 = Gather[axis = 0](%1359, %1360)
  %1362 = Constant[value = <Scalar Tensor []>]()
  %1363 = Div(%1358, %1362)
  %1364 = Cast[to = 7](%1363)
  %1365 = Cast[to = 7](%1364)
  %1366 = Constant[value = <Scalar Tensor []>]()
  %1367 = Gather[axis = 1](%1346, %1366)
  %1368 = Shape(%1367)
  %1369 = ConstantOfShape[value = <Tensor>](%1368)
  %1370 = bitwise_not(%1369)
  %1371 = Constant[value = <Scalar Tensor []>]()
  %1372 = Cast[to = 1](%1370)
  %1373 = CumSum(%1372, %1371)
  %1374 = Constant[value = <Scalar Tensor []>]()
  %1375 = Cast[to = 1](%1370)
  %1376 = CumSum(%1375, %1374)
  %1377 = Constant[value = <Tensor>]()
  %1378 = Constant[value = <Tensor>]()
  %1379 = Constant[value = <Tensor>]()
  %1380 = Constant[value = <Tensor>]()
  %1381 = Slice(%1373, %1378, %1379, %1377, %1380)
  %1382 = Constant[value = <Scalar Tensor []>]()
  %1383 = Add(%1381, %1382)
  %1384 = Div(%1373, %1383)
  %1385 = Constant[value = <Scalar Tensor []>]()
  %1386 = Mul(%1384, %1385)
  %1387 = Constant[value = <Tensor>]()
  %1388 = Constant[value = <Tensor>]()
  %1389 = Constant[value = <Tensor>]()
  %1390 = Constant[value = <Tensor>]()
  %1391 = Slice(%1376, %1388, %1389, %1387, %1390)
  %1392 = Constant[value = <Scalar Tensor []>]()
  %1393 = Add(%1391, %1392)
  %1394 = Div(%1376, %1393)
  %1395 = Constant[value = <Scalar Tensor []>]()
  %1396 = Mul(%1394, %1395)
  %1397 = Cast[to = 1](%1365)
  %1398 = Constant[value = <Scalar Tensor []>]()
  %1399 = Constant[value = <Scalar Tensor []>]()
  %1400 = Range(%1398, %1397, %1399)
  %1401 = Constant[value = <Scalar Tensor []>]()
  %1402 = Div(%1400, %1401)
  %1403 = Cast[to = 7](%1402)
  %1404 = Cast[to = 1](%1403)
  %1405 = Constant[value = <Scalar Tensor []>]()
  %1406 = Mul(%1404, %1405)
  %1407 = Cast[to = 1](%1365)
  %1408 = Div(%1406, %1407)
  %1409 = Constant[value = <Scalar Tensor []>]()
  %1410 = Pow(%1409, %1408)
  %1411 = Unsqueeze[axes = [3]](%1396)
  %1412 = Div(%1411, %1410)
  %1413 = Unsqueeze[axes = [3]](%1386)
  %1414 = Div(%1413, %1410)
  %1415 = Constant[value = <Tensor>]()
  %1416 = Constant[value = <Tensor>]()
  %1417 = Constant[value = <Tensor>]()
  %1418 = Constant[value = <Tensor>]()
  %1419 = Slice(%1412, %1416, %1417, %1415, %1418)
  %1420 = Sin(%1419)
  %1421 = Constant[value = <Tensor>]()
  %1422 = Constant[value = <Tensor>]()
  %1423 = Constant[value = <Tensor>]()
  %1424 = Constant[value = <Tensor>]()
  %1425 = Slice(%1412, %1422, %1423, %1421, %1424)
  %1426 = Cos(%1425)
  %1427 = Unsqueeze[axes = [4]](%1420)
  %1428 = Unsqueeze[axes = [4]](%1426)
  %1429 = Concat[axis = 4](%1427, %1428)
  %1430 = Shape(%1429)
  %1431 = Constant[value = <Tensor>]()
  %1432 = Constant[value = <Tensor>]()
  %1433 = Constant[value = <Tensor>]()
  %1434 = Slice(%1430, %1432, %1433, %1431)
  %1435 = Constant[value = <Tensor>]()
  %1436 = Concat[axis = 0](%1434, %1435)
  %1437 = Reshape(%1429, %1436)
  %1438 = Constant[value = <Tensor>]()
  %1439 = Constant[value = <Tensor>]()
  %1440 = Constant[value = <Tensor>]()
  %1441 = Constant[value = <Tensor>]()
  %1442 = Slice(%1414, %1439, %1440, %1438, %1441)
  %1443 = Sin(%1442)
  %1444 = Constant[value = <Tensor>]()
  %1445 = Constant[value = <Tensor>]()
  %1446 = Constant[value = <Tensor>]()
  %1447 = Constant[value = <Tensor>]()
  %1448 = Slice(%1414, %1445, %1446, %1444, %1447)
  %1449 = Cos(%1448)
  %1450 = Unsqueeze[axes = [4]](%1443)
  %1451 = Unsqueeze[axes = [4]](%1449)
  %1452 = Concat[axis = 4](%1450, %1451)
  %1453 = Shape(%1452)
  %1454 = Constant[value = <Tensor>]()
  %1455 = Constant[value = <Tensor>]()
  %1456 = Constant[value = <Tensor>]()
  %1457 = Slice(%1453, %1455, %1456, %1454)
  %1458 = Constant[value = <Tensor>]()
  %1459 = Concat[axis = 0](%1457, %1458)
  %1460 = Reshape(%1452, %1459)
  %1461 = Concat[axis = 3](%1460, %1437)
  %1462 = Transpose[perm = [0, 3, 1, 2]](%1461)
  %1463 = Shape(%1462)
  %1464 = Constant[value = <Tensor>]()
  %1465 = Constant[value = <Tensor>]()
  %1466 = Constant[value = <Tensor>]()
  %1467 = Slice(%1463, %1465, %1466, %1464)
  %1468 = Constant[value = <Tensor>]()
  %1469 = Concat[axis = 0](%1467, %1468)
  %1470 = Reshape(%1462, %1469)
  %1471 = Transpose[perm = [2, 0, 1]](%1470)
  %1472 = Add(%1355, %1471)
  %1473 = Shape(%1472)
  %1474 = Constant[value = <Scalar Tensor []>]()
  %1475 = Gather[axis = 0](%1473, %1474)
  %1476 = Shape(%1472)
  %1477 = Constant[value = <Scalar Tensor []>]()
  %1478 = Gather[axis = 0](%1476, %1477)
  %1479 = Shape(%1472)
  %1480 = Constant[value = <Scalar Tensor []>]()
  %1481 = Gather[axis = 0](%1479, %1480)
  %1482 = Constant[value = <Scalar Tensor []>]()
  %1483 = Div(%1481, %1482)
  %1484 = Cast[to = 7](%1483)
  %1485 = Cast[to = 7](%1484)
  %1486 = Constant[value = <Scalar Tensor []>]()
  %1487 = Constant[value = <Scalar Tensor []>]()
  %1488 = Unsqueeze[axes = [0]](%1487)
  %1489 = Unsqueeze[axes = [0]](%1481)
  %1490 = Unsqueeze[axes = [0]](%1486)
  %1491 = Constant[value = <Tensor>]()
  %1492 = Slice(%model.18.transformer_encoder.layers.0.self_attn.in_proj_weight, %1488, %1489, %1490, %1491)
  %1493 = Constant[value = <Scalar Tensor []>]()
  %1494 = Constant[value = <Scalar Tensor []>]()
  %1495 = Unsqueeze[axes = [0]](%1494)
  %1496 = Unsqueeze[axes = [0]](%1481)
  %1497 = Unsqueeze[axes = [0]](%1493)
  %1498 = Constant[value = <Tensor>]()
  %1499 = Slice(%model.18.transformer_encoder.layers.0.self_attn.in_proj_bias, %1495, %1496, %1497, %1498)
  %1500 = Transpose[perm = [1, 0]](%1492)
  %1501 = MatMul(%1472, %1500)
  %1502 = Add(%1501, %1499)
  %1503 = Constant[value = <Scalar Tensor []>]()
  %1504 = Mul(%1481, %1503)
  %1505 = Constant[value = <Scalar Tensor []>]()
  %1506 = Unsqueeze[axes = [0]](%1481)
  %1507 = Unsqueeze[axes = [0]](%1504)
  %1508 = Unsqueeze[axes = [0]](%1505)
  %1509 = Constant[value = <Tensor>]()
  %1510 = Slice(%model.18.transformer_encoder.layers.0.self_attn.in_proj_weight, %1506, %1507, %1508, %1509)
  %1511 = Constant[value = <Scalar Tensor []>]()
  %1512 = Unsqueeze[axes = [0]](%1481)
  %1513 = Unsqueeze[axes = [0]](%1504)
  %1514 = Unsqueeze[axes = [0]](%1511)
  %1515 = Constant[value = <Tensor>]()
  %1516 = Slice(%model.18.transformer_encoder.layers.0.self_attn.in_proj_bias, %1512, %1513, %1514, %1515)
  %1517 = Transpose[perm = [1, 0]](%1510)
  %1518 = MatMul(%1472, %1517)
  %1519 = Add(%1518, %1516)
  %1520 = Constant[value = <Scalar Tensor []>]()
  %1521 = Mul(%1481, %1520)
  %1522 = Constant[value = <Scalar Tensor []>]()
  %1523 = Constant[value = <Scalar Tensor []>]()
  %1524 = Unsqueeze[axes = [0]](%1521)
  %1525 = Unsqueeze[axes = [0]](%1523)
  %1526 = Unsqueeze[axes = [0]](%1522)
  %1527 = Constant[value = <Tensor>]()
  %1528 = Slice(%model.18.transformer_encoder.layers.0.self_attn.in_proj_weight, %1524, %1525, %1526, %1527)
  %1529 = Constant[value = <Scalar Tensor []>]()
  %1530 = Constant[value = <Scalar Tensor []>]()
  %1531 = Unsqueeze[axes = [0]](%1521)
  %1532 = Unsqueeze[axes = [0]](%1530)
  %1533 = Unsqueeze[axes = [0]](%1529)
  %1534 = Constant[value = <Tensor>]()
  %1535 = Slice(%model.18.transformer_encoder.layers.0.self_attn.in_proj_bias, %1531, %1532, %1533, %1534)
  %1536 = Transpose[perm = [1, 0]](%1528)
  %1537 = MatMul(%1355, %1536)
  %1538 = Add(%1537, %1535)
  %1539 = Constant[value = <Scalar Tensor []>]()
  %1540 = Mul(%1502, %1539)
  %1541 = Constant[value = <Scalar Tensor []>]()
  %1542 = Mul(%1478, %1541)
  %1543 = Unsqueeze[axes = [0]](%1475)
  %1544 = Unsqueeze[axes = [0]](%1542)
  %1545 = Unsqueeze[axes = [0]](%1485)
  %1546 = Concat[axis = 0](%1543, %1544, %1545)
  %1547 = Reshape(%1540, %1546)
  %1548 = Transpose[perm = [1, 0, 2]](%1547)
  %1549 = Constant[value = <Scalar Tensor []>]()
  %1550 = Mul(%1478, %1549)
  %1551 = Constant[value = <Scalar Tensor []>]()
  %1552 = Unsqueeze[axes = [0]](%1551)
  %1553 = Unsqueeze[axes = [0]](%1550)
  %1554 = Unsqueeze[axes = [0]](%1485)
  %1555 = Concat[axis = 0](%1552, %1553, %1554)
  %1556 = Reshape(%1519, %1555)
  %1557 = Constant[value = <Scalar Tensor []>]()
  %1558 = Mul(%1478, %1557)
  %1559 = Constant[value = <Scalar Tensor []>]()
  %1560 = Unsqueeze[axes = [0]](%1559)
  %1561 = Unsqueeze[axes = [0]](%1558)
  %1562 = Unsqueeze[axes = [0]](%1485)
  %1563 = Concat[axis = 0](%1560, %1561, %1562)
  %1564 = Reshape(%1538, %1563)
  %1565 = Transpose[perm = [1, 0, 2]](%1564)
  %1566 = Transpose[perm = [1, 2, 0]](%1556)
  %1567 = MatMul(%1548, %1566)
  %1568 = Softmax[axis = 2](%1567)
  %1569 = MatMul(%1568, %1565)
  %1570 = Transpose[perm = [1, 0, 2]](%1569)
  %1571 = Unsqueeze[axes = [0]](%1475)
  %1572 = Unsqueeze[axes = [0]](%1478)
  %1573 = Unsqueeze[axes = [0]](%1481)
  %1574 = Concat[axis = 0](%1571, %1572, %1573)
  %1575 = Reshape(%1570, %1574)
  %1576 = Transpose[perm = [1, 0]](%model.18.transformer_encoder.layers.0.self_attn.out_proj.weight)
  %1577 = MatMul(%1575, %1576)
  %1578 = Add(%1577, %model.18.transformer_encoder.layers.0.self_attn.out_proj.bias)
  %1579 = Add(%1355, %1578)
  %1580 = ATen[cudnn_enable = 1, eps = 9.99999974737875e-06, normalized_shape = [128], operator = 'layer_norm'](%1579, %model.18.transformer_encoder.layers.0.norm1.weight, %model.18.transformer_encoder.layers.0.norm1.bias)
  %1581 = Transpose[perm = [1, 0]](%model.18.transformer_encoder.layers.0.linear1.weight)
  %1582 = MatMul(%1580, %1581)
  %1583 = Add(%1582, %model.18.transformer_encoder.layers.0.linear1.bias)
  %1584 = Relu(%1583)
  %1585 = Transpose[perm = [1, 0]](%model.18.transformer_encoder.layers.0.linear2.weight)
  %1586 = MatMul(%1584, %1585)
  %1587 = Add(%1586, %model.18.transformer_encoder.layers.0.linear2.bias)
  %1588 = Add(%1580, %1587)
  %1589 = ATen[cudnn_enable = 1, eps = 9.99999974737875e-06, normalized_shape = [128], operator = 'layer_norm'](%1588, %model.18.transformer_encoder.layers.0.norm2.weight, %model.18.transformer_encoder.layers.0.norm2.bias)
  %1590 = Shape(%1589)
  %1591 = Constant[value = <Scalar Tensor []>]()
  %1592 = Gather[axis = 0](%1590, %1591)
  %1593 = Shape(%1589)
  %1594 = Constant[value = <Scalar Tensor []>]()
  %1595 = Gather[axis = 0](%1593, %1594)
  %1596 = Shape(%1589)
  %1597 = Constant[value = <Scalar Tensor []>]()
  %1598 = Gather[axis = 0](%1596, %1597)
  %1599 = Constant[value = <Scalar Tensor []>]()
  %1600 = Mul(%1361, %1599)
  %1601 = Div(%1592, %1600)
  %1602 = Cast[to = 7](%1601)
  %1603 = Cast[to = 7](%1602)
  %1604 = Constant[value = <Scalar Tensor []>]()
  %1605 = Div(%1595, %1604)
  %1606 = Cast[to = 7](%1605)
  %1607 = Cast[to = 7](%1606)
  %1608 = Constant[value = <Scalar Tensor []>]()
  %1609 = Div(%1598, %1608)
  %1610 = Cast[to = 7](%1609)
  %1611 = Cast[to = 7](%1610)
  %1612 = Constant[value = <Scalar Tensor []>]()
  %1613 = Mul(%1607, %1612)
  %1614 = Constant[value = <Scalar Tensor []>]()
  %1615 = Mul(%1611, %1614)
  %1616 = Constant[value = <Scalar Tensor []>]()
  %1617 = Mul(%1361, %1616)
  %1618 = Constant[value = <Scalar Tensor []>]()
  %1619 = Mul(%1603, %1618)
  %1620 = Unsqueeze[axes = [0]](%1361)
  %1621 = Unsqueeze[axes = [0]](%1603)
  %1622 = Unsqueeze[axes = [0]](%1607)
  %1623 = Unsqueeze[axes = [0]](%1611)
  %1624 = Concat[axis = 0](%1620, %1621, %1622, %1623)
  %1625 = Reshape(%1589, %1624)
  %1626 = Transpose[perm = [2, 3, 0, 1]](%1625)
  %1627 = Unsqueeze[axes = [0]](%1613)
  %1628 = Unsqueeze[axes = [0]](%1615)
  %1629 = Unsqueeze[axes = [0]](%1617)
  %1630 = Unsqueeze[axes = [0]](%1619)
  %1631 = Concat[axis = 0](%1627, %1628, %1629, %1630)
  %1632 = Reshape(%1626, %1631)
  %1633 = Concat[axis = 1](%1632, %1346)
  %3237 = Conv[dilations = [1, 1], group = 1, kernel_shape = [1, 1], pads = [0, 0, 0, 0], strides = [1, 1]](%1633, %3238, %3239)
  %1636 = Constant[value = <Scalar Tensor []>]()
  %1637 = Add(%3237, %1636)
  %1638 = Constant[value = <Scalar Tensor []>]()
  %1639 = Constant[value = <Scalar Tensor []>]()
  %1640 = Clip(%1637, %1638, %1639)
  %1641 = Mul(%3237, %1640)
  %1642 = Constant[value = <Scalar Tensor []>]()
  %1643 = Div(%1641, %1642)
  %1644 = Constant[value = <Tensor>]()
  %1645 = Constant[value = <Tensor>]()
  %1646 = Concat[axis = 0](%1644, %1645)
  %1647 = Constant[value = <Tensor>]()
  %1648 = Resize[coordinate_transformation_mode = 'asymmetric', cubic_coeff_a = -0.75, mode = 'nearest', nearest_mode = 'floor'](%1643, %1647, %1646)
  %1649 = Concat[axis = 1](%1648, %801)
  %1650 = Shape(%1649)
  %1651 = Constant[value = <Tensor>]()
  %1652 = Constant[value = <Tensor>]()
  %1653 = Constant[value = <Tensor>]()
  %1654 = Slice(%1650, %1652, %1653, %1651)
  %1655 = Constant[value = <Tensor>]()
  %1656 = Concat[axis = 0](%1654, %1655)
  %1657 = Reshape(%1649, %1656)
  %1658 = Transpose[perm = [2, 0, 1]](%1657)
  %1659 = Shape(%1649)
  %1660 = Constant[value = <Scalar Tensor []>]()
  %1661 = Gather[axis = 0](%1659, %1660)
  %1662 = Shape(%1649)
  %1663 = Constant[value = <Scalar Tensor []>]()
  %1664 = Gather[axis = 0](%1662, %1663)
  %1665 = Constant[value = <Scalar Tensor []>]()
  %1666 = Div(%1661, %1665)
  %1667 = Cast[to = 7](%1666)
  %1668 = Cast[to = 7](%1667)
  %1669 = Constant[value = <Scalar Tensor []>]()
  %1670 = Gather[axis = 1](%1649, %1669)
  %1671 = Shape(%1670)
  %1672 = ConstantOfShape[value = <Tensor>](%1671)
  %1673 = bitwise_not(%1672)
  %1674 = Constant[value = <Scalar Tensor []>]()
  %1675 = Cast[to = 1](%1673)
  %1676 = CumSum(%1675, %1674)
  %1677 = Constant[value = <Scalar Tensor []>]()
  %1678 = Cast[to = 1](%1673)
  %1679 = CumSum(%1678, %1677)
  %1680 = Constant[value = <Tensor>]()
  %1681 = Constant[value = <Tensor>]()
  %1682 = Constant[value = <Tensor>]()
  %1683 = Constant[value = <Tensor>]()
  %1684 = Slice(%1676, %1681, %1682, %1680, %1683)
  %1685 = Constant[value = <Scalar Tensor []>]()
  %1686 = Add(%1684, %1685)
  %1687 = Div(%1676, %1686)
  %1688 = Constant[value = <Scalar Tensor []>]()
  %1689 = Mul(%1687, %1688)
  %1690 = Constant[value = <Tensor>]()
  %1691 = Constant[value = <Tensor>]()
  %1692 = Constant[value = <Tensor>]()
  %1693 = Constant[value = <Tensor>]()
  %1694 = Slice(%1679, %1691, %1692, %1690, %1693)
  %1695 = Constant[value = <Scalar Tensor []>]()
  %1696 = Add(%1694, %1695)
  %1697 = Div(%1679, %1696)
  %1698 = Constant[value = <Scalar Tensor []>]()
  %1699 = Mul(%1697, %1698)
  %1700 = Cast[to = 1](%1668)
  %1701 = Constant[value = <Scalar Tensor []>]()
  %1702 = Constant[value = <Scalar Tensor []>]()
  %1703 = Range(%1701, %1700, %1702)
  %1704 = Constant[value = <Scalar Tensor []>]()
  %1705 = Div(%1703, %1704)
  %1706 = Cast[to = 7](%1705)
  %1707 = Cast[to = 1](%1706)
  %1708 = Constant[value = <Scalar Tensor []>]()
  %1709 = Mul(%1707, %1708)
  %1710 = Cast[to = 1](%1668)
  %1711 = Div(%1709, %1710)
  %1712 = Constant[value = <Scalar Tensor []>]()
  %1713 = Pow(%1712, %1711)
  %1714 = Unsqueeze[axes = [3]](%1699)
  %1715 = Div(%1714, %1713)
  %1716 = Unsqueeze[axes = [3]](%1689)
  %1717 = Div(%1716, %1713)
  %1718 = Constant[value = <Tensor>]()
  %1719 = Constant[value = <Tensor>]()
  %1720 = Constant[value = <Tensor>]()
  %1721 = Constant[value = <Tensor>]()
  %1722 = Slice(%1715, %1719, %1720, %1718, %1721)
  %1723 = Sin(%1722)
  %1724 = Constant[value = <Tensor>]()
  %1725 = Constant[value = <Tensor>]()
  %1726 = Constant[value = <Tensor>]()
  %1727 = Constant[value = <Tensor>]()
  %1728 = Slice(%1715, %1725, %1726, %1724, %1727)
  %1729 = Cos(%1728)
  %1730 = Unsqueeze[axes = [4]](%1723)
  %1731 = Unsqueeze[axes = [4]](%1729)
  %1732 = Concat[axis = 4](%1730, %1731)
  %1733 = Shape(%1732)
  %1734 = Constant[value = <Tensor>]()
  %1735 = Constant[value = <Tensor>]()
  %1736 = Constant[value = <Tensor>]()
  %1737 = Slice(%1733, %1735, %1736, %1734)
  %1738 = Constant[value = <Tensor>]()
  %1739 = Concat[axis = 0](%1737, %1738)
  %1740 = Reshape(%1732, %1739)
  %1741 = Constant[value = <Tensor>]()
  %1742 = Constant[value = <Tensor>]()
  %1743 = Constant[value = <Tensor>]()
  %1744 = Constant[value = <Tensor>]()
  %1745 = Slice(%1717, %1742, %1743, %1741, %1744)
  %1746 = Sin(%1745)
  %1747 = Constant[value = <Tensor>]()
  %1748 = Constant[value = <Tensor>]()
  %1749 = Constant[value = <Tensor>]()
  %1750 = Constant[value = <Tensor>]()
  %1751 = Slice(%1717, %1748, %1749, %1747, %1750)
  %1752 = Cos(%1751)
  %1753 = Unsqueeze[axes = [4]](%1746)
  %1754 = Unsqueeze[axes = [4]](%1752)
  %1755 = Concat[axis = 4](%1753, %1754)
  %1756 = Shape(%1755)
  %1757 = Constant[value = <Tensor>]()
  %1758 = Constant[value = <Tensor>]()
  %1759 = Constant[value = <Tensor>]()
  %1760 = Slice(%1756, %1758, %1759, %1757)
  %1761 = Constant[value = <Tensor>]()
  %1762 = Concat[axis = 0](%1760, %1761)
  %1763 = Reshape(%1755, %1762)
  %1764 = Concat[axis = 3](%1763, %1740)
  %1765 = Transpose[perm = [0, 3, 1, 2]](%1764)
  %1766 = Shape(%1765)
  %1767 = Constant[value = <Tensor>]()
  %1768 = Constant[value = <Tensor>]()
  %1769 = Constant[value = <Tensor>]()
  %1770 = Slice(%1766, %1768, %1769, %1767)
  %1771 = Constant[value = <Tensor>]()
  %1772 = Concat[axis = 0](%1770, %1771)
  %1773 = Reshape(%1765, %1772)
  %1774 = Transpose[perm = [2, 0, 1]](%1773)
  %1775 = Add(%1658, %1774)
  %1776 = Shape(%1775)
  %1777 = Constant[value = <Scalar Tensor []>]()
  %1778 = Gather[axis = 0](%1776, %1777)
  %1779 = Shape(%1775)
  %1780 = Constant[value = <Scalar Tensor []>]()
  %1781 = Gather[axis = 0](%1779, %1780)
  %1782 = Shape(%1775)
  %1783 = Constant[value = <Scalar Tensor []>]()
  %1784 = Gather[axis = 0](%1782, %1783)
  %1785 = Constant[value = <Scalar Tensor []>]()
  %1786 = Div(%1784, %1785)
  %1787 = Cast[to = 7](%1786)
  %1788 = Cast[to = 7](%1787)
  %1789 = Constant[value = <Scalar Tensor []>]()
  %1790 = Constant[value = <Scalar Tensor []>]()
  %1791 = Unsqueeze[axes = [0]](%1790)
  %1792 = Unsqueeze[axes = [0]](%1784)
  %1793 = Unsqueeze[axes = [0]](%1789)
  %1794 = Constant[value = <Tensor>]()
  %1795 = Slice(%model.23.transformer_encoder.layers.0.self_attn.in_proj_weight, %1791, %1792, %1793, %1794)
  %1796 = Constant[value = <Scalar Tensor []>]()
  %1797 = Constant[value = <Scalar Tensor []>]()
  %1798 = Unsqueeze[axes = [0]](%1797)
  %1799 = Unsqueeze[axes = [0]](%1784)
  %1800 = Unsqueeze[axes = [0]](%1796)
  %1801 = Constant[value = <Tensor>]()
  %1802 = Slice(%model.23.transformer_encoder.layers.0.self_attn.in_proj_bias, %1798, %1799, %1800, %1801)
  %1803 = Transpose[perm = [1, 0]](%1795)
  %1804 = MatMul(%1775, %1803)
  %1805 = Add(%1804, %1802)
  %1806 = Constant[value = <Scalar Tensor []>]()
  %1807 = Mul(%1784, %1806)
  %1808 = Constant[value = <Scalar Tensor []>]()
  %1809 = Unsqueeze[axes = [0]](%1784)
  %1810 = Unsqueeze[axes = [0]](%1807)
  %1811 = Unsqueeze[axes = [0]](%1808)
  %1812 = Constant[value = <Tensor>]()
  %1813 = Slice(%model.23.transformer_encoder.layers.0.self_attn.in_proj_weight, %1809, %1810, %1811, %1812)
  %1814 = Constant[value = <Scalar Tensor []>]()
  %1815 = Unsqueeze[axes = [0]](%1784)
  %1816 = Unsqueeze[axes = [0]](%1807)
  %1817 = Unsqueeze[axes = [0]](%1814)
  %1818 = Constant[value = <Tensor>]()
  %1819 = Slice(%model.23.transformer_encoder.layers.0.self_attn.in_proj_bias, %1815, %1816, %1817, %1818)
  %1820 = Transpose[perm = [1, 0]](%1813)
  %1821 = MatMul(%1775, %1820)
  %1822 = Add(%1821, %1819)
  %1823 = Constant[value = <Scalar Tensor []>]()
  %1824 = Mul(%1784, %1823)
  %1825 = Constant[value = <Scalar Tensor []>]()
  %1826 = Constant[value = <Scalar Tensor []>]()
  %1827 = Unsqueeze[axes = [0]](%1824)
  %1828 = Unsqueeze[axes = [0]](%1826)
  %1829 = Unsqueeze[axes = [0]](%1825)
  %1830 = Constant[value = <Tensor>]()
  %1831 = Slice(%model.23.transformer_encoder.layers.0.self_attn.in_proj_weight, %1827, %1828, %1829, %1830)
  %1832 = Constant[value = <Scalar Tensor []>]()
  %1833 = Constant[value = <Scalar Tensor []>]()
  %1834 = Unsqueeze[axes = [0]](%1824)
  %1835 = Unsqueeze[axes = [0]](%1833)
  %1836 = Unsqueeze[axes = [0]](%1832)
  %1837 = Constant[value = <Tensor>]()
  %1838 = Slice(%model.23.transformer_encoder.layers.0.self_attn.in_proj_bias, %1834, %1835, %1836, %1837)
  %1839 = Transpose[perm = [1, 0]](%1831)
  %1840 = MatMul(%1658, %1839)
  %1841 = Add(%1840, %1838)
  %1842 = Constant[value = <Scalar Tensor []>]()
  %1843 = Mul(%1805, %1842)
  %1844 = Constant[value = <Scalar Tensor []>]()
  %1845 = Mul(%1781, %1844)
  %1846 = Unsqueeze[axes = [0]](%1778)
  %1847 = Unsqueeze[axes = [0]](%1845)
  %1848 = Unsqueeze[axes = [0]](%1788)
  %1849 = Concat[axis = 0](%1846, %1847, %1848)
  %1850 = Reshape(%1843, %1849)
  %1851 = Transpose[perm = [1, 0, 2]](%1850)
  %1852 = Constant[value = <Scalar Tensor []>]()
  %1853 = Mul(%1781, %1852)
  %1854 = Constant[value = <Scalar Tensor []>]()
  %1855 = Unsqueeze[axes = [0]](%1854)
  %1856 = Unsqueeze[axes = [0]](%1853)
  %1857 = Unsqueeze[axes = [0]](%1788)
  %1858 = Concat[axis = 0](%1855, %1856, %1857)
  %1859 = Reshape(%1822, %1858)
  %1860 = Constant[value = <Scalar Tensor []>]()
  %1861 = Mul(%1781, %1860)
  %1862 = Constant[value = <Scalar Tensor []>]()
  %1863 = Unsqueeze[axes = [0]](%1862)
  %1864 = Unsqueeze[axes = [0]](%1861)
  %1865 = Unsqueeze[axes = [0]](%1788)
  %1866 = Concat[axis = 0](%1863, %1864, %1865)
  %1867 = Reshape(%1841, %1866)
  %1868 = Transpose[perm = [1, 0, 2]](%1867)
  %1869 = Transpose[perm = [1, 2, 0]](%1859)
  %1870 = MatMul(%1851, %1869)
  %1871 = Softmax[axis = 2](%1870)
  %1872 = MatMul(%1871, %1868)
  %1873 = Transpose[perm = [1, 0, 2]](%1872)
  %1874 = Unsqueeze[axes = [0]](%1778)
  %1875 = Unsqueeze[axes = [0]](%1781)
  %1876 = Unsqueeze[axes = [0]](%1784)
  %1877 = Concat[axis = 0](%1874, %1875, %1876)
  %1878 = Reshape(%1873, %1877)
  %1879 = Transpose[perm = [1, 0]](%model.23.transformer_encoder.layers.0.self_attn.out_proj.weight)
  %1880 = MatMul(%1878, %1879)
  %1881 = Add(%1880, %model.23.transformer_encoder.layers.0.self_attn.out_proj.bias)
  %1882 = Add(%1658, %1881)
  %1883 = ATen[cudnn_enable = 1, eps = 9.99999974737875e-06, normalized_shape = [256], operator = 'layer_norm'](%1882, %model.23.transformer_encoder.layers.0.norm1.weight, %model.23.transformer_encoder.layers.0.norm1.bias)
  %1884 = Transpose[perm = [1, 0]](%model.23.transformer_encoder.layers.0.linear1.weight)
  %1885 = MatMul(%1883, %1884)
  %1886 = Add(%1885, %model.23.transformer_encoder.layers.0.linear1.bias)
  %1887 = Relu(%1886)
  %1888 = Transpose[perm = [1, 0]](%model.23.transformer_encoder.layers.0.linear2.weight)
  %1889 = MatMul(%1887, %1888)
  %1890 = Add(%1889, %model.23.transformer_encoder.layers.0.linear2.bias)
  %1891 = Add(%1883, %1890)
  %1892 = ATen[cudnn_enable = 1, eps = 9.99999974737875e-06, normalized_shape = [256], operator = 'layer_norm'](%1891, %model.23.transformer_encoder.layers.0.norm2.weight, %model.23.transformer_encoder.layers.0.norm2.bias)
  %1893 = Shape(%1892)
  %1894 = Constant[value = <Scalar Tensor []>]()
  %1895 = Gather[axis = 0](%1893, %1894)
  %1896 = Shape(%1892)
  %1897 = Constant[value = <Scalar Tensor []>]()
  %1898 = Gather[axis = 0](%1896, %1897)
  %1899 = Shape(%1892)
  %1900 = Constant[value = <Scalar Tensor []>]()
  %1901 = Gather[axis = 0](%1899, %1900)
  %1902 = Constant[value = <Scalar Tensor []>]()
  %1903 = Mul(%1664, %1902)
  %1904 = Div(%1895, %1903)
  %1905 = Cast[to = 7](%1904)
  %1906 = Cast[to = 7](%1905)
  %1907 = Constant[value = <Scalar Tensor []>]()
  %1908 = Div(%1898, %1907)
  %1909 = Cast[to = 7](%1908)
  %1910 = Cast[to = 7](%1909)
  %1911 = Constant[value = <Scalar Tensor []>]()
  %1912 = Div(%1901, %1911)
  %1913 = Cast[to = 7](%1912)
  %1914 = Cast[to = 7](%1913)
  %1915 = Constant[value = <Scalar Tensor []>]()
  %1916 = Mul(%1910, %1915)
  %1917 = Constant[value = <Scalar Tensor []>]()
  %1918 = Mul(%1914, %1917)
  %1919 = Constant[value = <Scalar Tensor []>]()
  %1920 = Mul(%1664, %1919)
  %1921 = Constant[value = <Scalar Tensor []>]()
  %1922 = Mul(%1906, %1921)
  %1923 = Unsqueeze[axes = [0]](%1664)
  %1924 = Unsqueeze[axes = [0]](%1906)
  %1925 = Unsqueeze[axes = [0]](%1910)
  %1926 = Unsqueeze[axes = [0]](%1914)
  %1927 = Concat[axis = 0](%1923, %1924, %1925, %1926)
  %1928 = Reshape(%1892, %1927)
  %1929 = Transpose[perm = [2, 3, 0, 1]](%1928)
  %1930 = Unsqueeze[axes = [0]](%1916)
  %1931 = Unsqueeze[axes = [0]](%1918)
  %1932 = Unsqueeze[axes = [0]](%1920)
  %1933 = Unsqueeze[axes = [0]](%1922)
  %1934 = Concat[axis = 0](%1930, %1931, %1932, %1933)
  %1935 = Reshape(%1929, %1934)
  %1936 = Concat[axis = 1](%1935, %1649)
  %3240 = Conv[dilations = [1, 1], group = 1, kernel_shape = [1, 1], pads = [0, 0, 0, 0], strides = [1, 1]](%1936, %3241, %3242)
  %1939 = Constant[value = <Scalar Tensor []>]()
  %1940 = Add(%3240, %1939)
  %1941 = Constant[value = <Scalar Tensor []>]()
  %1942 = Constant[value = <Scalar Tensor []>]()
  %1943 = Clip(%1940, %1941, %1942)
  %1944 = Mul(%3240, %1943)
  %1945 = Constant[value = <Scalar Tensor []>]()
  %1946 = Div(%1944, %1945)
  %3243 = Conv[dilations = [1, 1], group = 1, kernel_shape = [1, 1], pads = [0, 0, 0, 0], strides = [1, 1]](%1946, %3244, %3245)
  %1949 = Constant[value = <Scalar Tensor []>]()
  %1950 = Add(%3243, %1949)
  %1951 = Constant[value = <Scalar Tensor []>]()
  %1952 = Constant[value = <Scalar Tensor []>]()
  %1953 = Clip(%1950, %1951, %1952)
  %1954 = Mul(%3243, %1953)
  %1955 = Constant[value = <Scalar Tensor []>]()
  %1956 = Div(%1954, %1955)
  %3246 = Conv[dilations = [1, 1], group = 1, kernel_shape = [1, 1], pads = [0, 0, 0, 0], strides = [1, 1]](%1956, %3247, %3248)
  %1959 = Constant[value = <Scalar Tensor []>]()
  %1960 = Add(%3246, %1959)
  %1961 = Constant[value = <Scalar Tensor []>]()
  %1962 = Constant[value = <Scalar Tensor []>]()
  %1963 = Clip(%1960, %1961, %1962)
  %1964 = Mul(%3246, %1963)
  %1965 = Constant[value = <Scalar Tensor []>]()
  %1966 = Div(%1964, %1965)
  %3249 = Conv[dilations = [1, 1], group = 1, kernel_shape = [3, 3], pads = [1, 1, 1, 1], strides = [1, 1]](%1966, %3250, %3251)
  %1969 = Constant[value = <Scalar Tensor []>]()
  %1970 = Add(%3249, %1969)
  %1971 = Constant[value = <Scalar Tensor []>]()
  %1972 = Constant[value = <Scalar Tensor []>]()
  %1973 = Clip(%1970, %1971, %1972)
  %1974 = Mul(%3249, %1973)
  %1975 = Constant[value = <Scalar Tensor []>]()
  %1976 = Div(%1974, %1975)
  %1977 = Conv[dilations = [1, 1], group = 1, kernel_shape = [1, 1], pads = [0, 0, 0, 0], strides = [1, 1]](%1976, %model.26.cv3.weight)
  %1978 = Conv[dilations = [1, 1], group = 1, kernel_shape = [1, 1], pads = [0, 0, 0, 0], strides = [1, 1]](%1946, %model.26.cv2.weight)
  %1979 = Concat[axis = 1](%1977, %1978)
  %1980 = BatchNormalization[epsilon = 0.00100000004749745, momentum = 0.970000028610229](%1979, %model.26.bn.weight, %model.26.bn.bias, %model.26.bn.running_mean, %model.26.bn.running_var)
  %1981 = LeakyRelu[alpha = 0.100000001490116](%1980)
  %3252 = Conv[dilations = [1, 1], group = 1, kernel_shape = [1, 1], pads = [0, 0, 0, 0], strides = [1, 1]](%1981, %3253, %3254)
  %1984 = Constant[value = <Scalar Tensor []>]()
  %1985 = Add(%3252, %1984)
  %1986 = Constant[value = <Scalar Tensor []>]()
  %1987 = Constant[value = <Scalar Tensor []>]()
  %1988 = Clip(%1985, %1986, %1987)
  %1989 = Mul(%3252, %1988)
  %1990 = Constant[value = <Scalar Tensor []>]()
  %1991 = Div(%1989, %1990)
  %3255 = Conv[dilations = [1, 1], group = 1, kernel_shape = [3, 3], pads = [1, 1, 1, 1], strides = [2, 2]](%1991, %3256, %3257)
  %1994 = Constant[value = <Scalar Tensor []>]()
  %1995 = Add(%3255, %1994)
  %1996 = Constant[value = <Scalar Tensor []>]()
  %1997 = Constant[value = <Scalar Tensor []>]()
  %1998 = Clip(%1995, %1996, %1997)
  %1999 = Mul(%3255, %1998)
  %2000 = Constant[value = <Scalar Tensor []>]()
  %2001 = Div(%1999, %2000)
  %2002 = Concat[axis = 1](%2001, %1643)
  %3258 = Conv[dilations = [1, 1], group = 1, kernel_shape = [1, 1], pads = [0, 0, 0, 0], strides = [1, 1]](%2002, %3259, %3260)
  %2005 = Constant[value = <Scalar Tensor []>]()
  %2006 = Add(%3258, %2005)
  %2007 = Constant[value = <Scalar Tensor []>]()
  %2008 = Constant[value = <Scalar Tensor []>]()
  %2009 = Clip(%2006, %2007, %2008)
  %2010 = Mul(%3258, %2009)
  %2011 = Constant[value = <Scalar Tensor []>]()
  %2012 = Div(%2010, %2011)
  %3261 = Conv[dilations = [1, 1], group = 1, kernel_shape = [1, 1], pads = [0, 0, 0, 0], strides = [1, 1]](%2012, %3262, %3263)
  %2015 = Constant[value = <Scalar Tensor []>]()
  %2016 = Add(%3261, %2015)
  %2017 = Constant[value = <Scalar Tensor []>]()
  %2018 = Constant[value = <Scalar Tensor []>]()
  %2019 = Clip(%2016, %2017, %2018)
  %2020 = Mul(%3261, %2019)
  %2021 = Constant[value = <Scalar Tensor []>]()
  %2022 = Div(%2020, %2021)
  %3264 = Conv[dilations = [1, 1], group = 1, kernel_shape = [3, 3], pads = [1, 1, 1, 1], strides = [1, 1]](%2022, %3265, %3266)
  %2025 = Constant[value = <Scalar Tensor []>]()
  %2026 = Add(%3264, %2025)
  %2027 = Constant[value = <Scalar Tensor []>]()
  %2028 = Constant[value = <Scalar Tensor []>]()
  %2029 = Clip(%2026, %2027, %2028)
  %2030 = Mul(%3264, %2029)
  %2031 = Constant[value = <Scalar Tensor []>]()
  %2032 = Div(%2030, %2031)
  %2033 = Conv[dilations = [1, 1], group = 1, kernel_shape = [1, 1], pads = [0, 0, 0, 0], strides = [1, 1]](%2032, %model.29.cv3.weight)
  %2034 = Conv[dilations = [1, 1], group = 1, kernel_shape = [1, 1], pads = [0, 0, 0, 0], strides = [1, 1]](%2002, %model.29.cv2.weight)
  %2035 = Concat[axis = 1](%2033, %2034)
  %2036 = BatchNormalization[epsilon = 0.00100000004749745, momentum = 0.970000028610229](%2035, %model.29.bn.weight, %model.29.bn.bias, %model.29.bn.running_mean, %model.29.bn.running_var)
  %2037 = LeakyRelu[alpha = 0.100000001490116](%2036)
  %3267 = Conv[dilations = [1, 1], group = 1, kernel_shape = [1, 1], pads = [0, 0, 0, 0], strides = [1, 1]](%2037, %3268, %3269)
  %2040 = Constant[value = <Scalar Tensor []>]()
  %2041 = Add(%3267, %2040)
  %2042 = Constant[value = <Scalar Tensor []>]()
  %2043 = Constant[value = <Scalar Tensor []>]()
  %2044 = Clip(%2041, %2042, %2043)
  %2045 = Mul(%3267, %2044)
  %2046 = Constant[value = <Scalar Tensor []>]()
  %2047 = Div(%2045, %2046)
  %3270 = Conv[dilations = [1, 1], group = 1, kernel_shape = [3, 3], pads = [1, 1, 1, 1], strides = [2, 2]](%2047, %3271, %3272)
  %2050 = Constant[value = <Scalar Tensor []>]()
  %2051 = Add(%3270, %2050)
  %2052 = Constant[value = <Scalar Tensor []>]()
  %2053 = Constant[value = <Scalar Tensor []>]()
  %2054 = Clip(%2051, %2052, %2053)
  %2055 = Mul(%3270, %2054)
  %2056 = Constant[value = <Scalar Tensor []>]()
  %2057 = Div(%2055, %2056)
  %2058 = Concat[axis = 1](%2057, %1285)
  %3273 = Conv[dilations = [1, 1], group = 1, kernel_shape = [1, 1], pads = [0, 0, 0, 0], strides = [1, 1]](%2058, %3274, %3275)
  %2061 = Constant[value = <Scalar Tensor []>]()
  %2062 = Add(%3273, %2061)
  %2063 = Constant[value = <Scalar Tensor []>]()
  %2064 = Constant[value = <Scalar Tensor []>]()
  %2065 = Clip(%2062, %2063, %2064)
  %2066 = Mul(%3273, %2065)
  %2067 = Constant[value = <Scalar Tensor []>]()
  %2068 = Div(%2066, %2067)
  %3276 = Conv[dilations = [1, 1], group = 1, kernel_shape = [1, 1], pads = [0, 0, 0, 0], strides = [1, 1]](%2068, %3277, %3278)
  %2071 = Constant[value = <Scalar Tensor []>]()
  %2072 = Add(%3276, %2071)
  %2073 = Constant[value = <Scalar Tensor []>]()
  %2074 = Constant[value = <Scalar Tensor []>]()
  %2075 = Clip(%2072, %2073, %2074)
  %2076 = Mul(%3276, %2075)
  %2077 = Constant[value = <Scalar Tensor []>]()
  %2078 = Div(%2076, %2077)
  %3279 = Conv[dilations = [1, 1], group = 1, kernel_shape = [3, 3], pads = [1, 1, 1, 1], strides = [1, 1]](%2078, %3280, %3281)
  %2081 = Constant[value = <Scalar Tensor []>]()
  %2082 = Add(%3279, %2081)
  %2083 = Constant[value = <Scalar Tensor []>]()
  %2084 = Constant[value = <Scalar Tensor []>]()
  %2085 = Clip(%2082, %2083, %2084)
  %2086 = Mul(%3279, %2085)
  %2087 = Constant[value = <Scalar Tensor []>]()
  %2088 = Div(%2086, %2087)
  %2089 = Conv[dilations = [1, 1], group = 1, kernel_shape = [1, 1], pads = [0, 0, 0, 0], strides = [1, 1]](%2088, %model.32.cv3.weight)
  %2090 = Conv[dilations = [1, 1], group = 1, kernel_shape = [1, 1], pads = [0, 0, 0, 0], strides = [1, 1]](%2058, %model.32.cv2.weight)
  %2091 = Concat[axis = 1](%2089, %2090)
  %2092 = BatchNormalization[epsilon = 0.00100000004749745, momentum = 0.970000028610229](%2091, %model.32.bn.weight, %model.32.bn.bias, %model.32.bn.running_mean, %model.32.bn.running_var)
  %2093 = LeakyRelu[alpha = 0.100000001490116](%2092)
  %3282 = Conv[dilations = [1, 1], group = 1, kernel_shape = [1, 1], pads = [0, 0, 0, 0], strides = [1, 1]](%2093, %3283, %3284)
  %2096 = Constant[value = <Scalar Tensor []>]()
  %2097 = Add(%3282, %2096)
  %2098 = Constant[value = <Scalar Tensor []>]()
  %2099 = Constant[value = <Scalar Tensor []>]()
  %2100 = Clip(%2097, %2098, %2099)
  %2101 = Mul(%3282, %2100)
  %2102 = Constant[value = <Scalar Tensor []>]()
  %2103 = Div(%2101, %2102)
  %2104 = Conv[dilations = [1, 1], group = 1, kernel_shape = [1, 1], pads = [0, 0, 0, 0], strides = [1, 1]](%1991, %model.33.m.0.weight, %model.33.m.0.bias)
  %2105 = Shape(%2104)
  %2106 = Constant[value = <Scalar Tensor []>]()
  %2107 = Gather[axis = 0](%2105, %2106)
  %2108 = Shape(%2104)
  %2109 = Constant[value = <Scalar Tensor []>]()
  %2110 = Gather[axis = 0](%2108, %2109)
  %2111 = Shape(%2104)
  %2112 = Constant[value = <Scalar Tensor []>]()
  %2113 = Gather[axis = 0](%2111, %2112)
  %2114 = Mul(%2110, %2113)
  %2115 = Constant[value = <Scalar Tensor []>]()
  %2116 = Constant[value = <Scalar Tensor []>]()
  %2117 = Unsqueeze[axes = [0]](%2107)
  %2118 = Unsqueeze[axes = [0]](%2115)
  %2119 = Unsqueeze[axes = [0]](%2116)
  %2120 = Unsqueeze[axes = [0]](%2114)
  %2121 = Concat[axis = 0](%2117, %2118, %2119, %2120)
  %2122 = Reshape(%2104, %2121)
  %2123 = Transpose[perm = [0, 1, 3, 2]](%2122)
  %2124 = Constant[value = <Scalar Tensor []>]()
  %2125 = Constant[value = <Scalar Tensor []>]()
  %2126 = Unsqueeze[axes = [0]](%2107)
  %2127 = Unsqueeze[axes = [0]](%2124)
  %2128 = Unsqueeze[axes = [0]](%2110)
  %2129 = Unsqueeze[axes = [0]](%2113)
  %2130 = Unsqueeze[axes = [0]](%2125)
  %2131 = Concat[axis = 0](%2126, %2127, %2128, %2129, %2130)
  %2132 = Reshape(%2123, %2131)
  %2133 = Cast[to = 7](%2110)
  %2134 = Constant[value = <Scalar Tensor []>]()
  %2135 = Constant[value = <Scalar Tensor []>]()
  %2136 = Range(%2134, %2133, %2135)
  %2137 = Cast[to = 7](%2113)
  %2138 = Constant[value = <Scalar Tensor []>]()
  %2139 = Constant[value = <Scalar Tensor []>]()
  %2140 = Range(%2138, %2137, %2139)
  %2141 = Constant[value = <Tensor>]()
  %2142 = Reshape(%2136, %2141)
  %2143 = Constant[value = <Tensor>]()
  %2144 = Reshape(%2140, %2143)
  %2145 = Shape(%2142)
  %2146 = Shape(%2144)
  %2147 = Concat[axis = 0](%2145, %2146)
  %2148 = Constant[value = <Tensor>]()
  %2149 = Concat[axis = 0](%2145, %2148)
  %2150 = Reshape(%2142, %2149)
  %2151 = Expand(%2150, %2147)
  %2152 = Constant[value = <Tensor>]()
  %2153 = Concat[axis = 0](%2152, %2146)
  %2154 = Reshape(%2144, %2153)
  %2155 = Expand(%2154, %2147)
  %2156 = Unsqueeze[axes = [2]](%2155)
  %2157 = Unsqueeze[axes = [2]](%2151)
  %2158 = Concat[axis = 2](%2156, %2157)
  %2159 = Constant[value = <Scalar Tensor []>]()
  %2160 = Constant[value = <Scalar Tensor []>]()
  %2161 = Constant[value = <Scalar Tensor []>]()
  %2162 = Unsqueeze[axes = [0]](%2159)
  %2163 = Unsqueeze[axes = [0]](%2160)
  %2164 = Unsqueeze[axes = [0]](%2110)
  %2165 = Unsqueeze[axes = [0]](%2113)
  %2166 = Unsqueeze[axes = [0]](%2161)
  %2167 = Concat[axis = 0](%2162, %2163, %2164, %2165, %2166)
  %2168 = Reshape(%2158, %2167)
  %2169 = Cast[to = 1](%2168)
  %2170 = Cast[to = 1](%2169)
  %2171 = Sigmoid(%2132)
  %2172 = Constant[value = <Tensor>]()
  %2173 = Constant[value = <Tensor>]()
  %2174 = Constant[value = <Tensor>]()
  %2175 = Constant[value = <Tensor>]()
  %2176 = Slice(%2171, %2173, %2174, %2172, %2175)
  %2177 = Constant[value = <Scalar Tensor []>]()
  %2178 = Mul(%2176, %2177)
  %2179 = Constant[value = <Scalar Tensor []>]()
  %2180 = Sub(%2178, %2179)
  %2181 = Cast[to = 1](%2170)
  %2182 = Add(%2180, %2181)
  %2183 = Constant[value = <Scalar Tensor []>]()
  %2184 = Mul(%2182, %2183)
  %2185 = Constant[value = <Tensor>]()
  %2186 = Constant[value = <Tensor>]()
  %2187 = Constant[value = <Tensor>]()
  %2188 = Constant[value = <Tensor>]()
  %2189 = Slice(%2171, %2186, %2187, %2185, %2188)
  %2190 = Constant[value = <Tensor>]()
  %2191 = Reshape(%2184, %2190)
  %2192 = Constant[value = <Tensor>]()
  %2193 = Shape(%2192)
  %2194 = ConstantOfShape[value = <Tensor>](%2193)
  %2195 = Constant[value = <Scalar Tensor []>]()
  %2196 = Mul(%2194, %2195)
  %2197 = Constant[value = <Tensor>]()
  %2198 = Equal(%2197, %2196)
  %2199 = Cast[to = 9](%2198)
  %2200 = Where(%2199, %2194, %2192)
  %2201 = Expand(%2191, %2200)
  %2202 = Constant[value = <Scalar Tensor []>]()
  %2203 = Shape(%2189)
  %2204 = Expand(%2201, %2203)
  %2205 = Shape(%2171)
  %2206 = Constant[value = <Scalar Tensor []>]()
  %2207 = Gather[axis = 0](%2205, %2206)
  %2208 = Cast[to = 7](%2207)
  %2209 = Constant[value = <Scalar Tensor []>]()
  %2210 = Constant[value = <Scalar Tensor []>]()
  %2211 = Range(%2209, %2208, %2210)
  %2212 = Shape(%2171)
  %2213 = Constant[value = <Scalar Tensor []>]()
  %2214 = Gather[axis = 0](%2212, %2213)
  %2215 = Cast[to = 7](%2214)
  %2216 = Constant[value = <Scalar Tensor []>]()
  %2217 = Constant[value = <Scalar Tensor []>]()
  %2218 = Range(%2216, %2215, %2217)
  %2219 = Shape(%2171)
  %2220 = Constant[value = <Scalar Tensor []>]()
  %2221 = Gather[axis = 0](%2219, %2220)
  %2222 = Cast[to = 7](%2221)
  %2223 = Constant[value = <Scalar Tensor []>]()
  %2224 = Constant[value = <Scalar Tensor []>]()
  %2225 = Range(%2223, %2222, %2224)
  %2226 = Shape(%2171)
  %2227 = Constant[value = <Scalar Tensor []>]()
  %2228 = Gather[axis = 0](%2226, %2227)
  %2229 = Cast[to = 7](%2228)
  %2230 = Constant[value = <Scalar Tensor []>]()
  %2231 = Constant[value = <Scalar Tensor []>]()
  %2232 = Range(%2230, %2229, %2231)
  %2233 = Shape(%2171)
  %2234 = Constant[value = <Scalar Tensor []>]()
  %2235 = Gather[axis = 0](%2233, %2234)
  %2236 = Cast[to = 7](%2235)
  %2237 = Constant[value = <Scalar Tensor []>]()
  %2238 = Constant[value = <Scalar Tensor []>]()
  %2239 = Range(%2237, %2236, %2238)
  %2240 = Constant[value = <Tensor>]()
  %2241 = Constant[value = <Tensor>]()
  %2242 = Constant[value = <Tensor>]()
  %2243 = Constant[value = <Tensor>]()
  %2244 = Slice(%2239, %2241, %2242, %2240, %2243)
  %2245 = Constant[value = <Tensor>]()
  %2246 = Reshape(%2211, %2245)
  %2247 = Constant[value = <Tensor>]()
  %2248 = Reshape(%2218, %2247)
  %2249 = Constant[value = <Tensor>]()
  %2250 = Reshape(%2225, %2249)
  %2251 = Constant[value = <Tensor>]()
  %2252 = Reshape(%2232, %2251)
  %2253 = Constant[value = <Tensor>]()
  %2254 = Reshape(%2244, %2253)
  %2255 = ATen[operator = 'index_put'](%2171, %2246, %2248, %2250, %2252, %2254, %2204, %2202)
  %2256 = Constant[value = <Tensor>]()
  %2257 = Constant[value = <Tensor>]()
  %2258 = Constant[value = <Tensor>]()
  %2259 = Constant[value = <Tensor>]()
  %2260 = Slice(%2255, %2257, %2258, %2256, %2259)
  %2261 = Constant[value = <Scalar Tensor []>]()
  %2262 = Mul(%2260, %2261)
  %2263 = Constant[value = <Scalar Tensor []>]()
  %2264 = Pow(%2262, %2263)
  %2265 = Constant[value = <Scalar Tensor []>]()
  %2266 = Gather[axis = 0](%model.33.anchor_grid, %2265)
  %2267 = Mul(%2264, %2266)
  %2268 = Constant[value = <Tensor>]()
  %2269 = Constant[value = <Tensor>]()
  %2270 = Constant[value = <Tensor>]()
  %2271 = Constant[value = <Tensor>]()
  %2272 = Slice(%2255, %2269, %2270, %2268, %2271)
  %2273 = Constant[value = <Tensor>]()
  %2274 = Reshape(%2267, %2273)
  %2275 = Constant[value = <Tensor>]()
  %2276 = Shape(%2275)
  %2277 = ConstantOfShape[value = <Tensor>](%2276)
  %2278 = Constant[value = <Scalar Tensor []>]()
  %2279 = Mul(%2277, %2278)
  %2280 = Constant[value = <Tensor>]()
  %2281 = Equal(%2280, %2279)
  %2282 = Cast[to = 9](%2281)
  %2283 = Where(%2282, %2277, %2275)
  %2284 = Expand(%2274, %2283)
  %2285 = Constant[value = <Scalar Tensor []>]()
  %2286 = Shape(%2272)
  %2287 = Expand(%2284, %2286)
  %2288 = Shape(%2255)
  %2289 = Constant[value = <Scalar Tensor []>]()
  %2290 = Gather[axis = 0](%2288, %2289)
  %2291 = Cast[to = 7](%2290)
  %2292 = Constant[value = <Scalar Tensor []>]()
  %2293 = Constant[value = <Scalar Tensor []>]()
  %2294 = Range(%2292, %2291, %2293)
  %2295 = Shape(%2255)
  %2296 = Constant[value = <Scalar Tensor []>]()
  %2297 = Gather[axis = 0](%2295, %2296)
  %2298 = Cast[to = 7](%2297)
  %2299 = Constant[value = <Scalar Tensor []>]()
  %2300 = Constant[value = <Scalar Tensor []>]()
  %2301 = Range(%2299, %2298, %2300)
  %2302 = Shape(%2255)
  %2303 = Constant[value = <Scalar Tensor []>]()
  %2304 = Gather[axis = 0](%2302, %2303)
  %2305 = Cast[to = 7](%2304)
  %2306 = Constant[value = <Scalar Tensor []>]()
  %2307 = Constant[value = <Scalar Tensor []>]()
  %2308 = Range(%2306, %2305, %2307)
  %2309 = Shape(%2255)
  %2310 = Constant[value = <Scalar Tensor []>]()
  %2311 = Gather[axis = 0](%2309, %2310)
  %2312 = Cast[to = 7](%2311)
  %2313 = Constant[value = <Scalar Tensor []>]()
  %2314 = Constant[value = <Scalar Tensor []>]()
  %2315 = Range(%2313, %2312, %2314)
  %2316 = Shape(%2255)
  %2317 = Constant[value = <Scalar Tensor []>]()
  %2318 = Gather[axis = 0](%2316, %2317)
  %2319 = Cast[to = 7](%2318)
  %2320 = Constant[value = <Scalar Tensor []>]()
  %2321 = Constant[value = <Scalar Tensor []>]()
  %2322 = Range(%2320, %2319, %2321)
  %2323 = Constant[value = <Tensor>]()
  %2324 = Constant[value = <Tensor>]()
  %2325 = Constant[value = <Tensor>]()
  %2326 = Constant[value = <Tensor>]()
  %2327 = Slice(%2322, %2324, %2325, %2323, %2326)
  %2328 = Constant[value = <Tensor>]()
  %2329 = Reshape(%2294, %2328)
  %2330 = Constant[value = <Tensor>]()
  %2331 = Reshape(%2301, %2330)
  %2332 = Constant[value = <Tensor>]()
  %2333 = Reshape(%2308, %2332)
  %2334 = Constant[value = <Tensor>]()
  %2335 = Reshape(%2315, %2334)
  %2336 = Constant[value = <Tensor>]()
  %2337 = Reshape(%2327, %2336)
  %2338 = ATen[operator = 'index_put'](%2255, %2329, %2331, %2333, %2335, %2337, %2287, %2285)
  %2339 = Constant[value = <Scalar Tensor []>]()
  %2340 = Constant[value = <Scalar Tensor []>]()
  %2341 = Unsqueeze[axes = [0]](%2107)
  %2342 = Unsqueeze[axes = [0]](%2339)
  %2343 = Unsqueeze[axes = [0]](%2340)
  %2344 = Concat[axis = 0](%2341, %2342, %2343)
  %2345 = Reshape(%2338, %2344)
  %2346 = Conv[dilations = [1, 1], group = 1, kernel_shape = [1, 1], pads = [0, 0, 0, 0], strides = [1, 1]](%2047, %model.33.m.1.weight, %model.33.m.1.bias)
  %2347 = Shape(%2346)
  %2348 = Constant[value = <Scalar Tensor []>]()
  %2349 = Gather[axis = 0](%2347, %2348)
  %2350 = Shape(%2346)
  %2351 = Constant[value = <Scalar Tensor []>]()
  %2352 = Gather[axis = 0](%2350, %2351)
  %2353 = Shape(%2346)
  %2354 = Constant[value = <Scalar Tensor []>]()
  %2355 = Gather[axis = 0](%2353, %2354)
  %2356 = Mul(%2352, %2355)
  %2357 = Constant[value = <Scalar Tensor []>]()
  %2358 = Constant[value = <Scalar Tensor []>]()
  %2359 = Unsqueeze[axes = [0]](%2349)
  %2360 = Unsqueeze[axes = [0]](%2357)
  %2361 = Unsqueeze[axes = [0]](%2358)
  %2362 = Unsqueeze[axes = [0]](%2356)
  %2363 = Concat[axis = 0](%2359, %2360, %2361, %2362)
  %2364 = Reshape(%2346, %2363)
  %2365 = Transpose[perm = [0, 1, 3, 2]](%2364)
  %2366 = Constant[value = <Scalar Tensor []>]()
  %2367 = Constant[value = <Scalar Tensor []>]()
  %2368 = Unsqueeze[axes = [0]](%2349)
  %2369 = Unsqueeze[axes = [0]](%2366)
  %2370 = Unsqueeze[axes = [0]](%2352)
  %2371 = Unsqueeze[axes = [0]](%2355)
  %2372 = Unsqueeze[axes = [0]](%2367)
  %2373 = Concat[axis = 0](%2368, %2369, %2370, %2371, %2372)
  %2374 = Reshape(%2365, %2373)
  %2375 = Cast[to = 7](%2352)
  %2376 = Constant[value = <Scalar Tensor []>]()
  %2377 = Constant[value = <Scalar Tensor []>]()
  %2378 = Range(%2376, %2375, %2377)
  %2379 = Cast[to = 7](%2355)
  %2380 = Constant[value = <Scalar Tensor []>]()
  %2381 = Constant[value = <Scalar Tensor []>]()
  %2382 = Range(%2380, %2379, %2381)
  %2383 = Constant[value = <Tensor>]()
  %2384 = Reshape(%2378, %2383)
  %2385 = Constant[value = <Tensor>]()
  %2386 = Reshape(%2382, %2385)
  %2387 = Shape(%2384)
  %2388 = Shape(%2386)
  %2389 = Concat[axis = 0](%2387, %2388)
  %2390 = Constant[value = <Tensor>]()
  %2391 = Concat[axis = 0](%2387, %2390)
  %2392 = Reshape(%2384, %2391)
  %2393 = Expand(%2392, %2389)
  %2394 = Constant[value = <Tensor>]()
  %2395 = Concat[axis = 0](%2394, %2388)
  %2396 = Reshape(%2386, %2395)
  %2397 = Expand(%2396, %2389)
  %2398 = Unsqueeze[axes = [2]](%2397)
  %2399 = Unsqueeze[axes = [2]](%2393)
  %2400 = Concat[axis = 2](%2398, %2399)
  %2401 = Constant[value = <Scalar Tensor []>]()
  %2402 = Constant[value = <Scalar Tensor []>]()
  %2403 = Constant[value = <Scalar Tensor []>]()
  %2404 = Unsqueeze[axes = [0]](%2401)
  %2405 = Unsqueeze[axes = [0]](%2402)
  %2406 = Unsqueeze[axes = [0]](%2352)
  %2407 = Unsqueeze[axes = [0]](%2355)
  %2408 = Unsqueeze[axes = [0]](%2403)
  %2409 = Concat[axis = 0](%2404, %2405, %2406, %2407, %2408)
  %2410 = Reshape(%2400, %2409)
  %2411 = Cast[to = 1](%2410)
  %2412 = Cast[to = 1](%2411)
  %2413 = Sigmoid(%2374)
  %2414 = Constant[value = <Tensor>]()
  %2415 = Constant[value = <Tensor>]()
  %2416 = Constant[value = <Tensor>]()
  %2417 = Constant[value = <Tensor>]()
  %2418 = Slice(%2413, %2415, %2416, %2414, %2417)
  %2419 = Constant[value = <Scalar Tensor []>]()
  %2420 = Mul(%2418, %2419)
  %2421 = Constant[value = <Scalar Tensor []>]()
  %2422 = Sub(%2420, %2421)
  %2423 = Cast[to = 1](%2412)
  %2424 = Add(%2422, %2423)
  %2425 = Constant[value = <Scalar Tensor []>]()
  %2426 = Mul(%2424, %2425)
  %2427 = Constant[value = <Tensor>]()
  %2428 = Constant[value = <Tensor>]()
  %2429 = Constant[value = <Tensor>]()
  %2430 = Constant[value = <Tensor>]()
  %2431 = Slice(%2413, %2428, %2429, %2427, %2430)
  %2432 = Constant[value = <Tensor>]()
  %2433 = Reshape(%2426, %2432)
  %2434 = Constant[value = <Tensor>]()
  %2435 = Shape(%2434)
  %2436 = ConstantOfShape[value = <Tensor>](%2435)
  %2437 = Constant[value = <Scalar Tensor []>]()
  %2438 = Mul(%2436, %2437)
  %2439 = Constant[value = <Tensor>]()
  %2440 = Equal(%2439, %2438)
  %2441 = Cast[to = 9](%2440)
  %2442 = Where(%2441, %2436, %2434)
  %2443 = Expand(%2433, %2442)
  %2444 = Constant[value = <Scalar Tensor []>]()
  %2445 = Shape(%2431)
  %2446 = Expand(%2443, %2445)
  %2447 = Shape(%2413)
  %2448 = Constant[value = <Scalar Tensor []>]()
  %2449 = Gather[axis = 0](%2447, %2448)
  %2450 = Cast[to = 7](%2449)
  %2451 = Constant[value = <Scalar Tensor []>]()
  %2452 = Constant[value = <Scalar Tensor []>]()
  %2453 = Range(%2451, %2450, %2452)
  %2454 = Shape(%2413)
  %2455 = Constant[value = <Scalar Tensor []>]()
  %2456 = Gather[axis = 0](%2454, %2455)
  %2457 = Cast[to = 7](%2456)
  %2458 = Constant[value = <Scalar Tensor []>]()
  %2459 = Constant[value = <Scalar Tensor []>]()
  %2460 = Range(%2458, %2457, %2459)
  %2461 = Shape(%2413)
  %2462 = Constant[value = <Scalar Tensor []>]()
  %2463 = Gather[axis = 0](%2461, %2462)
  %2464 = Cast[to = 7](%2463)
  %2465 = Constant[value = <Scalar Tensor []>]()
  %2466 = Constant[value = <Scalar Tensor []>]()
  %2467 = Range(%2465, %2464, %2466)
  %2468 = Shape(%2413)
  %2469 = Constant[value = <Scalar Tensor []>]()
  %2470 = Gather[axis = 0](%2468, %2469)
  %2471 = Cast[to = 7](%2470)
  %2472 = Constant[value = <Scalar Tensor []>]()
  %2473 = Constant[value = <Scalar Tensor []>]()
  %2474 = Range(%2472, %2471, %2473)
  %2475 = Shape(%2413)
  %2476 = Constant[value = <Scalar Tensor []>]()
  %2477 = Gather[axis = 0](%2475, %2476)
  %2478 = Cast[to = 7](%2477)
  %2479 = Constant[value = <Scalar Tensor []>]()
  %2480 = Constant[value = <Scalar Tensor []>]()
  %2481 = Range(%2479, %2478, %2480)
  %2482 = Constant[value = <Tensor>]()
  %2483 = Constant[value = <Tensor>]()
  %2484 = Constant[value = <Tensor>]()
  %2485 = Constant[value = <Tensor>]()
  %2486 = Slice(%2481, %2483, %2484, %2482, %2485)
  %2487 = Constant[value = <Tensor>]()
  %2488 = Reshape(%2453, %2487)
  %2489 = Constant[value = <Tensor>]()
  %2490 = Reshape(%2460, %2489)
  %2491 = Constant[value = <Tensor>]()
  %2492 = Reshape(%2467, %2491)
  %2493 = Constant[value = <Tensor>]()
  %2494 = Reshape(%2474, %2493)
  %2495 = Constant[value = <Tensor>]()
  %2496 = Reshape(%2486, %2495)
  %2497 = ATen[operator = 'index_put'](%2413, %2488, %2490, %2492, %2494, %2496, %2446, %2444)
  %2498 = Constant[value = <Tensor>]()
  %2499 = Constant[value = <Tensor>]()
  %2500 = Constant[value = <Tensor>]()
  %2501 = Constant[value = <Tensor>]()
  %2502 = Slice(%2497, %2499, %2500, %2498, %2501)
  %2503 = Constant[value = <Scalar Tensor []>]()
  %2504 = Mul(%2502, %2503)
  %2505 = Constant[value = <Scalar Tensor []>]()
  %2506 = Pow(%2504, %2505)
  %2507 = Constant[value = <Scalar Tensor []>]()
  %2508 = Gather[axis = 0](%model.33.anchor_grid, %2507)
  %2509 = Mul(%2506, %2508)
  %2510 = Constant[value = <Tensor>]()
  %2511 = Constant[value = <Tensor>]()
  %2512 = Constant[value = <Tensor>]()
  %2513 = Constant[value = <Tensor>]()
  %2514 = Slice(%2497, %2511, %2512, %2510, %2513)
  %2515 = Constant[value = <Tensor>]()
  %2516 = Reshape(%2509, %2515)
  %2517 = Constant[value = <Tensor>]()
  %2518 = Shape(%2517)
  %2519 = ConstantOfShape[value = <Tensor>](%2518)
  %2520 = Constant[value = <Scalar Tensor []>]()
  %2521 = Mul(%2519, %2520)
  %2522 = Constant[value = <Tensor>]()
  %2523 = Equal(%2522, %2521)
  %2524 = Cast[to = 9](%2523)
  %2525 = Where(%2524, %2519, %2517)
  %2526 = Expand(%2516, %2525)
  %2527 = Constant[value = <Scalar Tensor []>]()
  %2528 = Shape(%2514)
  %2529 = Expand(%2526, %2528)
  %2530 = Shape(%2497)
  %2531 = Constant[value = <Scalar Tensor []>]()
  %2532 = Gather[axis = 0](%2530, %2531)
  %2533 = Cast[to = 7](%2532)
  %2534 = Constant[value = <Scalar Tensor []>]()
  %2535 = Constant[value = <Scalar Tensor []>]()
  %2536 = Range(%2534, %2533, %2535)
  %2537 = Shape(%2497)
  %2538 = Constant[value = <Scalar Tensor []>]()
  %2539 = Gather[axis = 0](%2537, %2538)
  %2540 = Cast[to = 7](%2539)
  %2541 = Constant[value = <Scalar Tensor []>]()
  %2542 = Constant[value = <Scalar Tensor []>]()
  %2543 = Range(%2541, %2540, %2542)
  %2544 = Shape(%2497)
  %2545 = Constant[value = <Scalar Tensor []>]()
  %2546 = Gather[axis = 0](%2544, %2545)
  %2547 = Cast[to = 7](%2546)
  %2548 = Constant[value = <Scalar Tensor []>]()
  %2549 = Constant[value = <Scalar Tensor []>]()
  %2550 = Range(%2548, %2547, %2549)
  %2551 = Shape(%2497)
  %2552 = Constant[value = <Scalar Tensor []>]()
  %2553 = Gather[axis = 0](%2551, %2552)
  %2554 = Cast[to = 7](%2553)
  %2555 = Constant[value = <Scalar Tensor []>]()
  %2556 = Constant[value = <Scalar Tensor []>]()
  %2557 = Range(%2555, %2554, %2556)
  %2558 = Shape(%2497)
  %2559 = Constant[value = <Scalar Tensor []>]()
  %2560 = Gather[axis = 0](%2558, %2559)
  %2561 = Cast[to = 7](%2560)
  %2562 = Constant[value = <Scalar Tensor []>]()
  %2563 = Constant[value = <Scalar Tensor []>]()
  %2564 = Range(%2562, %2561, %2563)
  %2565 = Constant[value = <Tensor>]()
  %2566 = Constant[value = <Tensor>]()
  %2567 = Constant[value = <Tensor>]()
  %2568 = Constant[value = <Tensor>]()
  %2569 = Slice(%2564, %2566, %2567, %2565, %2568)
  %2570 = Constant[value = <Tensor>]()
  %2571 = Reshape(%2536, %2570)
  %2572 = Constant[value = <Tensor>]()
  %2573 = Reshape(%2543, %2572)
  %2574 = Constant[value = <Tensor>]()
  %2575 = Reshape(%2550, %2574)
  %2576 = Constant[value = <Tensor>]()
  %2577 = Reshape(%2557, %2576)
  %2578 = Constant[value = <Tensor>]()
  %2579 = Reshape(%2569, %2578)
  %2580 = ATen[operator = 'index_put'](%2497, %2571, %2573, %2575, %2577, %2579, %2529, %2527)
  %2581 = Constant[value = <Scalar Tensor []>]()
  %2582 = Constant[value = <Scalar Tensor []>]()
  %2583 = Unsqueeze[axes = [0]](%2349)
  %2584 = Unsqueeze[axes = [0]](%2581)
  %2585 = Unsqueeze[axes = [0]](%2582)
  %2586 = Concat[axis = 0](%2583, %2584, %2585)
  %2587 = Reshape(%2580, %2586)
  %2588 = Conv[dilations = [1, 1], group = 1, kernel_shape = [1, 1], pads = [0, 0, 0, 0], strides = [1, 1]](%2103, %model.33.m.2.weight, %model.33.m.2.bias)
  %2589 = Shape(%2588)
  %2590 = Constant[value = <Scalar Tensor []>]()
  %2591 = Gather[axis = 0](%2589, %2590)
  %2592 = Shape(%2588)
  %2593 = Constant[value = <Scalar Tensor []>]()
  %2594 = Gather[axis = 0](%2592, %2593)
  %2595 = Shape(%2588)
  %2596 = Constant[value = <Scalar Tensor []>]()
  %2597 = Gather[axis = 0](%2595, %2596)
  %2598 = Mul(%2594, %2597)
  %2599 = Constant[value = <Scalar Tensor []>]()
  %2600 = Constant[value = <Scalar Tensor []>]()
  %2601 = Unsqueeze[axes = [0]](%2591)
  %2602 = Unsqueeze[axes = [0]](%2599)
  %2603 = Unsqueeze[axes = [0]](%2600)
  %2604 = Unsqueeze[axes = [0]](%2598)
  %2605 = Concat[axis = 0](%2601, %2602, %2603, %2604)
  %2606 = Reshape(%2588, %2605)
  %2607 = Transpose[perm = [0, 1, 3, 2]](%2606)
  %2608 = Constant[value = <Scalar Tensor []>]()
  %2609 = Constant[value = <Scalar Tensor []>]()
  %2610 = Unsqueeze[axes = [0]](%2591)
  %2611 = Unsqueeze[axes = [0]](%2608)
  %2612 = Unsqueeze[axes = [0]](%2594)
  %2613 = Unsqueeze[axes = [0]](%2597)
  %2614 = Unsqueeze[axes = [0]](%2609)
  %2615 = Concat[axis = 0](%2610, %2611, %2612, %2613, %2614)
  %2616 = Reshape(%2607, %2615)
  %2617 = Cast[to = 7](%2594)
  %2618 = Constant[value = <Scalar Tensor []>]()
  %2619 = Constant[value = <Scalar Tensor []>]()
  %2620 = Range(%2618, %2617, %2619)
  %2621 = Cast[to = 7](%2597)
  %2622 = Constant[value = <Scalar Tensor []>]()
  %2623 = Constant[value = <Scalar Tensor []>]()
  %2624 = Range(%2622, %2621, %2623)
  %2625 = Constant[value = <Tensor>]()
  %2626 = Reshape(%2620, %2625)
  %2627 = Constant[value = <Tensor>]()
  %2628 = Reshape(%2624, %2627)
  %2629 = Shape(%2626)
  %2630 = Shape(%2628)
  %2631 = Concat[axis = 0](%2629, %2630)
  %2632 = Constant[value = <Tensor>]()
  %2633 = Concat[axis = 0](%2629, %2632)
  %2634 = Reshape(%2626, %2633)
  %2635 = Expand(%2634, %2631)
  %2636 = Constant[value = <Tensor>]()
  %2637 = Concat[axis = 0](%2636, %2630)
  %2638 = Reshape(%2628, %2637)
  %2639 = Expand(%2638, %2631)
  %2640 = Unsqueeze[axes = [2]](%2639)
  %2641 = Unsqueeze[axes = [2]](%2635)
  %2642 = Concat[axis = 2](%2640, %2641)
  %2643 = Constant[value = <Scalar Tensor []>]()
  %2644 = Constant[value = <Scalar Tensor []>]()
  %2645 = Constant[value = <Scalar Tensor []>]()
  %2646 = Unsqueeze[axes = [0]](%2643)
  %2647 = Unsqueeze[axes = [0]](%2644)
  %2648 = Unsqueeze[axes = [0]](%2594)
  %2649 = Unsqueeze[axes = [0]](%2597)
  %2650 = Unsqueeze[axes = [0]](%2645)
  %2651 = Concat[axis = 0](%2646, %2647, %2648, %2649, %2650)
  %2652 = Reshape(%2642, %2651)
  %2653 = Cast[to = 1](%2652)
  %2654 = Cast[to = 1](%2653)
  %2655 = Sigmoid(%2616)
  %2656 = Constant[value = <Tensor>]()
  %2657 = Constant[value = <Tensor>]()
  %2658 = Constant[value = <Tensor>]()
  %2659 = Constant[value = <Tensor>]()
  %2660 = Slice(%2655, %2657, %2658, %2656, %2659)
  %2661 = Constant[value = <Scalar Tensor []>]()
  %2662 = Mul(%2660, %2661)
  %2663 = Constant[value = <Scalar Tensor []>]()
  %2664 = Sub(%2662, %2663)
  %2665 = Cast[to = 1](%2654)
  %2666 = Add(%2664, %2665)
  %2667 = Constant[value = <Scalar Tensor []>]()
  %2668 = Mul(%2666, %2667)
  %2669 = Constant[value = <Tensor>]()
  %2670 = Constant[value = <Tensor>]()
  %2671 = Constant[value = <Tensor>]()
  %2672 = Constant[value = <Tensor>]()
  %2673 = Slice(%2655, %2670, %2671, %2669, %2672)
  %2674 = Constant[value = <Tensor>]()
  %2675 = Reshape(%2668, %2674)
  %2676 = Constant[value = <Tensor>]()
  %2677 = Shape(%2676)
  %2678 = ConstantOfShape[value = <Tensor>](%2677)
  %2679 = Constant[value = <Scalar Tensor []>]()
  %2680 = Mul(%2678, %2679)
  %2681 = Constant[value = <Tensor>]()
  %2682 = Equal(%2681, %2680)
  %2683 = Cast[to = 9](%2682)
  %2684 = Where(%2683, %2678, %2676)
  %2685 = Expand(%2675, %2684)
  %2686 = Constant[value = <Scalar Tensor []>]()
  %2687 = Shape(%2673)
  %2688 = Expand(%2685, %2687)
  %2689 = Shape(%2655)
  %2690 = Constant[value = <Scalar Tensor []>]()
  %2691 = Gather[axis = 0](%2689, %2690)
  %2692 = Cast[to = 7](%2691)
  %2693 = Constant[value = <Scalar Tensor []>]()
  %2694 = Constant[value = <Scalar Tensor []>]()
  %2695 = Range(%2693, %2692, %2694)
  %2696 = Shape(%2655)
  %2697 = Constant[value = <Scalar Tensor []>]()
  %2698 = Gather[axis = 0](%2696, %2697)
  %2699 = Cast[to = 7](%2698)
  %2700 = Constant[value = <Scalar Tensor []>]()
  %2701 = Constant[value = <Scalar Tensor []>]()
  %2702 = Range(%2700, %2699, %2701)
  %2703 = Shape(%2655)
  %2704 = Constant[value = <Scalar Tensor []>]()
  %2705 = Gather[axis = 0](%2703, %2704)
  %2706 = Cast[to = 7](%2705)
  %2707 = Constant[value = <Scalar Tensor []>]()
  %2708 = Constant[value = <Scalar Tensor []>]()
  %2709 = Range(%2707, %2706, %2708)
  %2710 = Shape(%2655)
  %2711 = Constant[value = <Scalar Tensor []>]()
  %2712 = Gather[axis = 0](%2710, %2711)
  %2713 = Cast[to = 7](%2712)
  %2714 = Constant[value = <Scalar Tensor []>]()
  %2715 = Constant[value = <Scalar Tensor []>]()
  %2716 = Range(%2714, %2713, %2715)
  %2717 = Shape(%2655)
  %2718 = Constant[value = <Scalar Tensor []>]()
  %2719 = Gather[axis = 0](%2717, %2718)
  %2720 = Cast[to = 7](%2719)
  %2721 = Constant[value = <Scalar Tensor []>]()
  %2722 = Constant[value = <Scalar Tensor []>]()
  %2723 = Range(%2721, %2720, %2722)
  %2724 = Constant[value = <Tensor>]()
  %2725 = Constant[value = <Tensor>]()
  %2726 = Constant[value = <Tensor>]()
  %2727 = Constant[value = <Tensor>]()
  %2728 = Slice(%2723, %2725, %2726, %2724, %2727)
  %2729 = Constant[value = <Tensor>]()
  %2730 = Reshape(%2695, %2729)
  %2731 = Constant[value = <Tensor>]()
  %2732 = Reshape(%2702, %2731)
  %2733 = Constant[value = <Tensor>]()
  %2734 = Reshape(%2709, %2733)
  %2735 = Constant[value = <Tensor>]()
  %2736 = Reshape(%2716, %2735)
  %2737 = Constant[value = <Tensor>]()
  %2738 = Reshape(%2728, %2737)
  %2739 = ATen[operator = 'index_put'](%2655, %2730, %2732, %2734, %2736, %2738, %2688, %2686)
  %2740 = Constant[value = <Tensor>]()
  %2741 = Constant[value = <Tensor>]()
  %2742 = Constant[value = <Tensor>]()
  %2743 = Constant[value = <Tensor>]()
  %2744 = Slice(%2739, %2741, %2742, %2740, %2743)
  %2745 = Constant[value = <Scalar Tensor []>]()
  %2746 = Mul(%2744, %2745)
  %2747 = Constant[value = <Scalar Tensor []>]()
  %2748 = Pow(%2746, %2747)
  %2749 = Constant[value = <Scalar Tensor []>]()
  %2750 = Gather[axis = 0](%model.33.anchor_grid, %2749)
  %2751 = Mul(%2748, %2750)
  %2752 = Constant[value = <Tensor>]()
  %2753 = Constant[value = <Tensor>]()
  %2754 = Constant[value = <Tensor>]()
  %2755 = Constant[value = <Tensor>]()
  %2756 = Slice(%2739, %2753, %2754, %2752, %2755)
  %2757 = Constant[value = <Tensor>]()
  %2758 = Reshape(%2751, %2757)
  %2759 = Constant[value = <Tensor>]()
  %2760 = Shape(%2759)
  %2761 = ConstantOfShape[value = <Tensor>](%2760)
  %2762 = Constant[value = <Scalar Tensor []>]()
  %2763 = Mul(%2761, %2762)
  %2764 = Constant[value = <Tensor>]()
  %2765 = Equal(%2764, %2763)
  %2766 = Cast[to = 9](%2765)
  %2767 = Where(%2766, %2761, %2759)
  %2768 = Expand(%2758, %2767)
  %2769 = Constant[value = <Scalar Tensor []>]()
  %2770 = Shape(%2756)
  %2771 = Expand(%2768, %2770)
  %2772 = Shape(%2739)
  %2773 = Constant[value = <Scalar Tensor []>]()
  %2774 = Gather[axis = 0](%2772, %2773)
  %2775 = Cast[to = 7](%2774)
  %2776 = Constant[value = <Scalar Tensor []>]()
  %2777 = Constant[value = <Scalar Tensor []>]()
  %2778 = Range(%2776, %2775, %2777)
  %2779 = Shape(%2739)
  %2780 = Constant[value = <Scalar Tensor []>]()
  %2781 = Gather[axis = 0](%2779, %2780)
  %2782 = Cast[to = 7](%2781)
  %2783 = Constant[value = <Scalar Tensor []>]()
  %2784 = Constant[value = <Scalar Tensor []>]()
  %2785 = Range(%2783, %2782, %2784)
  %2786 = Shape(%2739)
  %2787 = Constant[value = <Scalar Tensor []>]()
  %2788 = Gather[axis = 0](%2786, %2787)
  %2789 = Cast[to = 7](%2788)
  %2790 = Constant[value = <Scalar Tensor []>]()
  %2791 = Constant[value = <Scalar Tensor []>]()
  %2792 = Range(%2790, %2789, %2791)
  %2793 = Shape(%2739)
  %2794 = Constant[value = <Scalar Tensor []>]()
  %2795 = Gather[axis = 0](%2793, %2794)
  %2796 = Cast[to = 7](%2795)
  %2797 = Constant[value = <Scalar Tensor []>]()
  %2798 = Constant[value = <Scalar Tensor []>]()
  %2799 = Range(%2797, %2796, %2798)
  %2800 = Shape(%2739)
  %2801 = Constant[value = <Scalar Tensor []>]()
  %2802 = Gather[axis = 0](%2800, %2801)
  %2803 = Cast[to = 7](%2802)
  %2804 = Constant[value = <Scalar Tensor []>]()
  %2805 = Constant[value = <Scalar Tensor []>]()
  %2806 = Range(%2804, %2803, %2805)
  %2807 = Constant[value = <Tensor>]()
  %2808 = Constant[value = <Tensor>]()
  %2809 = Constant[value = <Tensor>]()
  %2810 = Constant[value = <Tensor>]()
  %2811 = Slice(%2806, %2808, %2809, %2807, %2810)
  %2812 = Constant[value = <Tensor>]()
  %2813 = Reshape(%2778, %2812)
  %2814 = Constant[value = <Tensor>]()
  %2815 = Reshape(%2785, %2814)
  %2816 = Constant[value = <Tensor>]()
  %2817 = Reshape(%2792, %2816)
  %2818 = Constant[value = <Tensor>]()
  %2819 = Reshape(%2799, %2818)
  %2820 = Constant[value = <Tensor>]()
  %2821 = Reshape(%2811, %2820)
  %2822 = ATen[operator = 'index_put'](%2739, %2813, %2815, %2817, %2819, %2821, %2771, %2769)
  %2823 = Constant[value = <Scalar Tensor []>]()
  %2824 = Constant[value = <Scalar Tensor []>]()
  %2825 = Unsqueeze[axes = [0]](%2591)
  %2826 = Unsqueeze[axes = [0]](%2823)
  %2827 = Unsqueeze[axes = [0]](%2824)
  %2828 = Concat[axis = 0](%2825, %2826, %2827)
  %2829 = Reshape(%2822, %2828)
  %det_out = Concat[axis = 1](%2345, %2587, %2829)
  %3285 = Conv[dilations = [1, 1], group = 1, kernel_shape = [3, 3], pads = [1, 1, 1, 1], strides = [1, 1]](%1946, %3286, %3287)
  %2833 = Constant[value = <Scalar Tensor []>]()
  %2834 = Add(%3285, %2833)
  %2835 = Constant[value = <Scalar Tensor []>]()
  %2836 = Constant[value = <Scalar Tensor []>]()
  %2837 = Clip(%2834, %2835, %2836)
  %2838 = Mul(%3285, %2837)
  %2839 = Constant[value = <Scalar Tensor []>]()
  %2840 = Div(%2838, %2839)
  %2841 = Constant[value = <Tensor>]()
  %2842 = Constant[value = <Tensor>]()
  %2843 = Concat[axis = 0](%2841, %2842)
  %2844 = Constant[value = <Tensor>]()
  %2845 = Resize[coordinate_transformation_mode = 'asymmetric', cubic_coeff_a = -0.75, mode = 'nearest', nearest_mode = 'floor'](%2840, %2844, %2843)
  %3288 = Conv[dilations = [1, 1], group = 1, kernel_shape = [1, 1], pads = [0, 0, 0, 0], strides = [1, 1]](%2845, %3289, %3290)
  %2848 = Constant[value = <Scalar Tensor []>]()
  %2849 = Add(%3288, %2848)
  %2850 = Constant[value = <Scalar Tensor []>]()
  %2851 = Constant[value = <Scalar Tensor []>]()
  %2852 = Clip(%2849, %2850, %2851)
  %2853 = Mul(%3288, %2852)
  %2854 = Constant[value = <Scalar Tensor []>]()
  %2855 = Div(%2853, %2854)
  %3291 = Conv[dilations = [1, 1], group = 1, kernel_shape = [1, 1], pads = [0, 0, 0, 0], strides = [1, 1]](%2855, %3292, %3293)
  %2858 = Constant[value = <Scalar Tensor []>]()
  %2859 = Add(%3291, %2858)
  %2860 = Constant[value = <Scalar Tensor []>]()
  %2861 = Constant[value = <Scalar Tensor []>]()
  %2862 = Clip(%2859, %2860, %2861)
  %2863 = Mul(%3291, %2862)
  %2864 = Constant[value = <Scalar Tensor []>]()
  %2865 = Div(%2863, %2864)
  %3294 = Conv[dilations = [1, 1], group = 1, kernel_shape = [3, 3], pads = [1, 1, 1, 1], strides = [1, 1]](%2865, %3295, %3296)
  %2868 = Constant[value = <Scalar Tensor []>]()
  %2869 = Add(%3294, %2868)
  %2870 = Constant[value = <Scalar Tensor []>]()
  %2871 = Constant[value = <Scalar Tensor []>]()
  %2872 = Clip(%2869, %2870, %2871)
  %2873 = Mul(%3294, %2872)
  %2874 = Constant[value = <Scalar Tensor []>]()
  %2875 = Div(%2873, %2874)
  %2876 = Conv[dilations = [1, 1], group = 1, kernel_shape = [1, 1], pads = [0, 0, 0, 0], strides = [1, 1]](%2875, %model.36.cv3.weight)
  %2877 = Conv[dilations = [1, 1], group = 1, kernel_shape = [1, 1], pads = [0, 0, 0, 0], strides = [1, 1]](%2845, %model.36.cv2.weight)
  %2878 = Concat[axis = 1](%2876, %2877)
  %2879 = BatchNormalization[epsilon = 0.00100000004749745, momentum = 0.970000028610229](%2878, %model.36.bn.weight, %model.36.bn.bias, %model.36.bn.running_mean, %model.36.bn.running_var)
  %2880 = LeakyRelu[alpha = 0.100000001490116](%2879)
  %3297 = Conv[dilations = [1, 1], group = 1, kernel_shape = [1, 1], pads = [0, 0, 0, 0], strides = [1, 1]](%2880, %3298, %3299)
  %2883 = Constant[value = <Scalar Tensor []>]()
  %2884 = Add(%3297, %2883)
  %2885 = Constant[value = <Scalar Tensor []>]()
  %2886 = Constant[value = <Scalar Tensor []>]()
  %2887 = Clip(%2884, %2885, %2886)
  %2888 = Mul(%3297, %2887)
  %2889 = Constant[value = <Scalar Tensor []>]()
  %2890 = Div(%2888, %2889)
  %3300 = Conv[dilations = [1, 1], group = 1, kernel_shape = [3, 3], pads = [1, 1, 1, 1], strides = [1, 1]](%2890, %3301, %3302)
  %2893 = Constant[value = <Scalar Tensor []>]()
  %2894 = Add(%3300, %2893)
  %2895 = Constant[value = <Scalar Tensor []>]()
  %2896 = Constant[value = <Scalar Tensor []>]()
  %2897 = Clip(%2894, %2895, %2896)
  %2898 = Mul(%3300, %2897)
  %2899 = Constant[value = <Scalar Tensor []>]()
  %2900 = Div(%2898, %2899)
  %2901 = Constant[value = <Tensor>]()
  %2902 = Constant[value = <Tensor>]()
  %2903 = Concat[axis = 0](%2901, %2902)
  %2904 = Constant[value = <Tensor>]()
  %2905 = Resize[coordinate_transformation_mode = 'asymmetric', cubic_coeff_a = -0.75, mode = 'nearest', nearest_mode = 'floor'](%2900, %2904, %2903)
  %3303 = Conv[dilations = [1, 1], group = 1, kernel_shape = [3, 3], pads = [1, 1, 1, 1], strides = [1, 1]](%2905, %3304, %3305)
  %2908 = Constant[value = <Scalar Tensor []>]()
  %2909 = Add(%3303, %2908)
  %2910 = Constant[value = <Scalar Tensor []>]()
  %2911 = Constant[value = <Scalar Tensor []>]()
  %2912 = Clip(%2909, %2910, %2911)
  %2913 = Mul(%3303, %2912)
  %2914 = Constant[value = <Scalar Tensor []>]()
  %2915 = Div(%2913, %2914)
  %3306 = Conv[dilations = [1, 1], group = 1, kernel_shape = [1, 1], pads = [0, 0, 0, 0], strides = [1, 1]](%2915, %3307, %3308)
  %2918 = Constant[value = <Scalar Tensor []>]()
  %2919 = Add(%3306, %2918)
  %2920 = Constant[value = <Scalar Tensor []>]()
  %2921 = Constant[value = <Scalar Tensor []>]()
  %2922 = Clip(%2919, %2920, %2921)
  %2923 = Mul(%3306, %2922)
  %2924 = Constant[value = <Scalar Tensor []>]()
  %2925 = Div(%2923, %2924)
  %3309 = Conv[dilations = [1, 1], group = 1, kernel_shape = [1, 1], pads = [0, 0, 0, 0], strides = [1, 1]](%2925, %3310, %3311)
  %2928 = Constant[value = <Scalar Tensor []>]()
  %2929 = Add(%3309, %2928)
  %2930 = Constant[value = <Scalar Tensor []>]()
  %2931 = Constant[value = <Scalar Tensor []>]()
  %2932 = Clip(%2929, %2930, %2931)
  %2933 = Mul(%3309, %2932)
  %2934 = Constant[value = <Scalar Tensor []>]()
  %2935 = Div(%2933, %2934)
  %3312 = Conv[dilations = [1, 1], group = 1, kernel_shape = [3, 3], pads = [1, 1, 1, 1], strides = [1, 1]](%2935, %3313, %3314)
  %2938 = Constant[value = <Scalar Tensor []>]()
  %2939 = Add(%3312, %2938)
  %2940 = Constant[value = <Scalar Tensor []>]()
  %2941 = Constant[value = <Scalar Tensor []>]()
  %2942 = Clip(%2939, %2940, %2941)
  %2943 = Mul(%3312, %2942)
  %2944 = Constant[value = <Scalar Tensor []>]()
  %2945 = Div(%2943, %2944)
  %2946 = Conv[dilations = [1, 1], group = 1, kernel_shape = [1, 1], pads = [0, 0, 0, 0], strides = [1, 1]](%2945, %model.40.cv3.weight)
  %2947 = Conv[dilations = [1, 1], group = 1, kernel_shape = [1, 1], pads = [0, 0, 0, 0], strides = [1, 1]](%2915, %model.40.cv2.weight)
  %2948 = Concat[axis = 1](%2946, %2947)
  %2949 = BatchNormalization[epsilon = 0.00100000004749745, momentum = 0.970000028610229](%2948, %model.40.bn.weight, %model.40.bn.bias, %model.40.bn.running_mean, %model.40.bn.running_var)
  %2950 = LeakyRelu[alpha = 0.100000001490116](%2949)
  %3315 = Conv[dilations = [1, 1], group = 1, kernel_shape = [1, 1], pads = [0, 0, 0, 0], strides = [1, 1]](%2950, %3316, %3317)
  %2953 = Constant[value = <Scalar Tensor []>]()
  %2954 = Add(%3315, %2953)
  %2955 = Constant[value = <Scalar Tensor []>]()
  %2956 = Constant[value = <Scalar Tensor []>]()
  %2957 = Clip(%2954, %2955, %2956)
  %2958 = Mul(%3315, %2957)
  %2959 = Constant[value = <Scalar Tensor []>]()
  %2960 = Div(%2958, %2959)
  %2961 = Constant[value = <Tensor>]()
  %2962 = Constant[value = <Tensor>]()
  %2963 = Concat[axis = 0](%2961, %2962)
  %2964 = Constant[value = <Tensor>]()
  %2965 = Resize[coordinate_transformation_mode = 'asymmetric', cubic_coeff_a = -0.75, mode = 'nearest', nearest_mode = 'floor'](%2960, %2964, %2963)
  %3318 = Conv[dilations = [1, 1], group = 1, kernel_shape = [3, 3], pads = [1, 1, 1, 1], strides = [1, 1]](%2965, %3319, %3320)
  %2968 = Constant[value = <Scalar Tensor []>]()
  %2969 = Add(%3318, %2968)
  %2970 = Constant[value = <Scalar Tensor []>]()
  %2971 = Constant[value = <Scalar Tensor []>]()
  %2972 = Clip(%2969, %2970, %2971)
  %2973 = Mul(%3318, %2972)
  %2974 = Constant[value = <Scalar Tensor []>]()
  %2975 = Div(%2973, %2974)
  %drive_area_seg = Sigmoid(%2975)
  %3321 = Conv[dilations = [1, 1], group = 1, kernel_shape = [3, 3], pads = [1, 1, 1, 1], strides = [1, 1]](%1946, %3322, %3323)
  %2979 = Constant[value = <Scalar Tensor []>]()
  %2980 = Add(%3321, %2979)
  %2981 = Constant[value = <Scalar Tensor []>]()
  %2982 = Constant[value = <Scalar Tensor []>]()
  %2983 = Clip(%2980, %2981, %2982)
  %2984 = Mul(%3321, %2983)
  %2985 = Constant[value = <Scalar Tensor []>]()
  %2986 = Div(%2984, %2985)
  %2987 = Constant[value = <Tensor>]()
  %2988 = Constant[value = <Tensor>]()
  %2989 = Concat[axis = 0](%2987, %2988)
  %2990 = Constant[value = <Tensor>]()
  %2991 = Resize[coordinate_transformation_mode = 'asymmetric', cubic_coeff_a = -0.75, mode = 'nearest', nearest_mode = 'floor'](%2986, %2990, %2989)
  %3324 = Conv[dilations = [1, 1], group = 1, kernel_shape = [1, 1], pads = [0, 0, 0, 0], strides = [1, 1]](%2991, %3325, %3326)
  %2994 = Constant[value = <Scalar Tensor []>]()
  %2995 = Add(%3324, %2994)
  %2996 = Constant[value = <Scalar Tensor []>]()
  %2997 = Constant[value = <Scalar Tensor []>]()
  %2998 = Clip(%2995, %2996, %2997)
  %2999 = Mul(%3324, %2998)
  %3000 = Constant[value = <Scalar Tensor []>]()
  %3001 = Div(%2999, %3000)
  %3327 = Conv[dilations = [1, 1], group = 1, kernel_shape = [1, 1], pads = [0, 0, 0, 0], strides = [1, 1]](%3001, %3328, %3329)
  %3004 = Constant[value = <Scalar Tensor []>]()
  %3005 = Add(%3327, %3004)
  %3006 = Constant[value = <Scalar Tensor []>]()
  %3007 = Constant[value = <Scalar Tensor []>]()
  %3008 = Clip(%3005, %3006, %3007)
  %3009 = Mul(%3327, %3008)
  %3010 = Constant[value = <Scalar Tensor []>]()
  %3011 = Div(%3009, %3010)
  %3330 = Conv[dilations = [1, 1], group = 1, kernel_shape = [3, 3], pads = [1, 1, 1, 1], strides = [1, 1]](%3011, %3331, %3332)
  %3014 = Constant[value = <Scalar Tensor []>]()
  %3015 = Add(%3330, %3014)
  %3016 = Constant[value = <Scalar Tensor []>]()
  %3017 = Constant[value = <Scalar Tensor []>]()
  %3018 = Clip(%3015, %3016, %3017)
  %3019 = Mul(%3330, %3018)
  %3020 = Constant[value = <Scalar Tensor []>]()
  %3021 = Div(%3019, %3020)
  %3022 = Conv[dilations = [1, 1], group = 1, kernel_shape = [1, 1], pads = [0, 0, 0, 0], strides = [1, 1]](%3021, %model.45.cv3.weight)
  %3023 = Conv[dilations = [1, 1], group = 1, kernel_shape = [1, 1], pads = [0, 0, 0, 0], strides = [1, 1]](%2991, %model.45.cv2.weight)
  %3024 = Concat[axis = 1](%3022, %3023)
  %3025 = BatchNormalization[epsilon = 0.00100000004749745, momentum = 0.970000028610229](%3024, %model.45.bn.weight, %model.45.bn.bias, %model.45.bn.running_mean, %model.45.bn.running_var)
  %3026 = LeakyRelu[alpha = 0.100000001490116](%3025)
  %3333 = Conv[dilations = [1, 1], group = 1, kernel_shape = [1, 1], pads = [0, 0, 0, 0], strides = [1, 1]](%3026, %3334, %3335)
  %3029 = Constant[value = <Scalar Tensor []>]()
  %3030 = Add(%3333, %3029)
  %3031 = Constant[value = <Scalar Tensor []>]()
  %3032 = Constant[value = <Scalar Tensor []>]()
  %3033 = Clip(%3030, %3031, %3032)
  %3034 = Mul(%3333, %3033)
  %3035 = Constant[value = <Scalar Tensor []>]()
  %3036 = Div(%3034, %3035)
  %3336 = Conv[dilations = [1, 1], group = 1, kernel_shape = [3, 3], pads = [1, 1, 1, 1], strides = [1, 1]](%3036, %3337, %3338)
  %3039 = Constant[value = <Scalar Tensor []>]()
  %3040 = Add(%3336, %3039)
  %3041 = Constant[value = <Scalar Tensor []>]()
  %3042 = Constant[value = <Scalar Tensor []>]()
  %3043 = Clip(%3040, %3041, %3042)
  %3044 = Mul(%3336, %3043)
  %3045 = Constant[value = <Scalar Tensor []>]()
  %3046 = Div(%3044, %3045)
  %3047 = Constant[value = <Tensor>]()
  %3048 = Constant[value = <Tensor>]()
  %3049 = Concat[axis = 0](%3047, %3048)
  %3050 = Constant[value = <Tensor>]()
  %3051 = Resize[coordinate_transformation_mode = 'asymmetric', cubic_coeff_a = -0.75, mode = 'nearest', nearest_mode = 'floor'](%3046, %3050, %3049)
  %3339 = Conv[dilations = [1, 1], group = 1, kernel_shape = [3, 3], pads = [1, 1, 1, 1], strides = [1, 1]](%3051, %3340, %3341)
  %3054 = Constant[value = <Scalar Tensor []>]()
  %3055 = Add(%3339, %3054)
  %3056 = Constant[value = <Scalar Tensor []>]()
  %3057 = Constant[value = <Scalar Tensor []>]()
  %3058 = Clip(%3055, %3056, %3057)
  %3059 = Mul(%3339, %3058)
  %3060 = Constant[value = <Scalar Tensor []>]()
  %3061 = Div(%3059, %3060)
  %3342 = Conv[dilations = [1, 1], group = 1, kernel_shape = [1, 1], pads = [0, 0, 0, 0], strides = [1, 1]](%3061, %3343, %3344)
  %3064 = Constant[value = <Scalar Tensor []>]()
  %3065 = Add(%3342, %3064)
  %3066 = Constant[value = <Scalar Tensor []>]()
  %3067 = Constant[value = <Scalar Tensor []>]()
  %3068 = Clip(%3065, %3066, %3067)
  %3069 = Mul(%3342, %3068)
  %3070 = Constant[value = <Scalar Tensor []>]()
  %3071 = Div(%3069, %3070)
  %3345 = Conv[dilations = [1, 1], group = 1, kernel_shape = [1, 1], pads = [0, 0, 0, 0], strides = [1, 1]](%3071, %3346, %3347)
  %3074 = Constant[value = <Scalar Tensor []>]()
  %3075 = Add(%3345, %3074)
  %3076 = Constant[value = <Scalar Tensor []>]()
  %3077 = Constant[value = <Scalar Tensor []>]()
  %3078 = Clip(%3075, %3076, %3077)
  %3079 = Mul(%3345, %3078)
  %3080 = Constant[value = <Scalar Tensor []>]()
  %3081 = Div(%3079, %3080)
  %3348 = Conv[dilations = [1, 1], group = 1, kernel_shape = [3, 3], pads = [1, 1, 1, 1], strides = [1, 1]](%3081, %3349, %3350)
  %3084 = Constant[value = <Scalar Tensor []>]()
  %3085 = Add(%3348, %3084)
  %3086 = Constant[value = <Scalar Tensor []>]()
  %3087 = Constant[value = <Scalar Tensor []>]()
  %3088 = Clip(%3085, %3086, %3087)
  %3089 = Mul(%3348, %3088)
  %3090 = Constant[value = <Scalar Tensor []>]()
  %3091 = Div(%3089, %3090)
  %3092 = Conv[dilations = [1, 1], group = 1, kernel_shape = [1, 1], pads = [0, 0, 0, 0], strides = [1, 1]](%3091, %model.49.cv3.weight)
  %3093 = Conv[dilations = [1, 1], group = 1, kernel_shape = [1, 1], pads = [0, 0, 0, 0], strides = [1, 1]](%3061, %model.49.cv2.weight)
  %3094 = Concat[axis = 1](%3092, %3093)
  %3095 = BatchNormalization[epsilon = 0.00100000004749745, momentum = 0.970000028610229](%3094, %model.49.bn.weight, %model.49.bn.bias, %model.49.bn.running_mean, %model.49.bn.running_var)
  %3096 = LeakyRelu[alpha = 0.100000001490116](%3095)
  %3351 = Conv[dilations = [1, 1], group = 1, kernel_shape = [1, 1], pads = [0, 0, 0, 0], strides = [1, 1]](%3096, %3352, %3353)
  %3099 = Constant[value = <Scalar Tensor []>]()
  %3100 = Add(%3351, %3099)
  %3101 = Constant[value = <Scalar Tensor []>]()
  %3102 = Constant[value = <Scalar Tensor []>]()
  %3103 = Clip(%3100, %3101, %3102)
  %3104 = Mul(%3351, %3103)
  %3105 = Constant[value = <Scalar Tensor []>]()
  %3106 = Div(%3104, %3105)
  %3107 = Constant[value = <Tensor>]()
  %3108 = Constant[value = <Tensor>]()
  %3109 = Concat[axis = 0](%3107, %3108)
  %3110 = Constant[value = <Tensor>]()
  %3111 = Resize[coordinate_transformation_mode = 'asymmetric', cubic_coeff_a = -0.75, mode = 'nearest', nearest_mode = 'floor'](%3106, %3110, %3109)
  %3354 = Conv[dilations = [1, 1], group = 1, kernel_shape = [3, 3], pads = [1, 1, 1, 1], strides = [1, 1]](%3111, %3355, %3356)
  %3114 = Constant[value = <Scalar Tensor []>]()
  %3115 = Add(%3354, %3114)
  %3116 = Constant[value = <Scalar Tensor []>]()
  %3117 = Constant[value = <Scalar Tensor []>]()
  %3118 = Clip(%3115, %3116, %3117)
  %3119 = Mul(%3354, %3118)
  %3120 = Constant[value = <Scalar Tensor []>]()
  %3121 = Div(%3119, %3120)
  %lane_line_seg = Sigmoid(%3121)
  return %det_out, %drive_area_seg, %lane_line_seg
}
read failed
